{"format": "graph-model", "generatedBy": "2.6.0", "convertedBy": "TensorFlow.js Converter v3.9.0", "signature": {"outputs": {"ArgMax": {"name": "ArgMax"}}}, "modelTopology": {"node": [{"name": "resnet_model/batch_normalization_45/gamma", "op": "Const", "attr": {"dtype": {"type": "DT_FLOAT"}, "value": {"tensor": {"dtype": "DT_FLOAT", "tensorShape": {"dim": [{"size": "944"}]}}}}}, {"name": "resnet_model/batch_normalization_45/beta", "op": "Const", "attr": {"dtype": {"type": "DT_FLOAT"}, "value": {"tensor": {"dtype": "DT_FLOAT", "tensorShape": {"dim": [{"size": "944"}]}}}}}, {"name": "resnet_model/batch_normalization_45/moving_mean", "op": "Const", "attr": {"dtype": {"type": "DT_FLOAT"}, "value": {"tensor": {"dtype": "DT_FLOAT", "tensorShape": {"dim": [{"size": "944"}]}}}}}, {"name": "resnet_model/batch_normalization_45/moving_variance", "op": "Const", "attr": {"value": {"tensor": {"dtype": "DT_FLOAT", "tensorShape": {"dim": [{"size": "944"}]}}}, "dtype": {"type": "DT_FLOAT"}}}, {"name": "resnet_model/conv2d_51/EConv2D_1/Variable", "op": "Const", "attr": {"dtype": {"type": "DT_FLOAT"}, "value": {"tensor": {"dtype": "DT_FLOAT", "tensorShape": {"dim": [{"size": "3"}, {"size": "3"}, {"size": "284"}, {"size": "1"}]}}}}}, {"name": "resnet_model/conv2d_52/kernel", "op": "Const", "attr": {"dtype": {"type": "DT_FLOAT"}, "value": {"tensor": {"dtype": "DT_FLOAT", "tensorShape": {"dim": [{"size": "1"}, {"size": "1"}, {"size": "288"}, {"size": "944"}]}}}}}, {"name": "resnet_model/batch_normalization_42/gamma", "op": "Const", "attr": {"value": {"tensor": {"dtype": "DT_FLOAT", "tensorShape": {"dim": [{"size": "944"}]}}}, "dtype": {"type": "DT_FLOAT"}}}, {"name": "resnet_model/batch_normalization_42/beta", "op": "Const", "attr": {"dtype": {"type": "DT_FLOAT"}, "value": {"tensor": {"dtype": "DT_FLOAT", "tensorShape": {"dim": [{"size": "944"}]}}}}}, {"name": "resnet_model/batch_normalization_42/moving_mean", "op": "Const", "attr": {"dtype": {"type": "DT_FLOAT"}, "value": {"tensor": {"dtype": "DT_FLOAT", "tensorShape": {"dim": [{"size": "944"}]}}}}}, {"name": "resnet_model/batch_normalization_42/moving_variance", "op": "Const", "attr": {"value": {"tensor": {"dtype": "DT_FLOAT", "tensorShape": {"dim": [{"size": "944"}]}}}, "dtype": {"type": "DT_FLOAT"}}}, {"name": "resnet_model/conv2d_48/EConv2D_1/Variable", "op": "Const", "attr": {"value": {"tensor": {"dtype": "DT_FLOAT", "tensorShape": {"dim": [{"size": "3"}, {"size": "3"}, {"size": "280"}, {"size": "1"}]}}}, "dtype": {"type": "DT_FLOAT"}}}, {"name": "resnet_model/conv2d_49/kernel", "op": "Const", "attr": {"dtype": {"type": "DT_FLOAT"}, "value": {"tensor": {"dtype": "DT_FLOAT", "tensorShape": {"dim": [{"size": "1"}, {"size": "1"}, {"size": "284"}, {"size": "944"}]}}}}}, {"name": "resnet_model/conv2d_44/SelfAttention_1/Reshape/shape/1", "op": "Const", "device": "/device:GPU:0", "attr": {"value": {"tensor": {"dtype": "DT_INT32", "tensorShape": {}}}, "dtype": {"type": "DT_INT32"}}}, {"name": "resnet_model/conv2d_44/SelfAttention_1/Reshape/shape/2", "op": "Const", "device": "/device:GPU:0", "attr": {"value": {"tensor": {"dtype": "DT_INT32", "tensorShape": {}}}, "dtype": {"type": "DT_INT32"}}}, {"name": "resnet_model/conv2d_44/SelfAttention_1/Reshape/shape/3", "op": "Const", "device": "/device:GPU:0", "attr": {"dtype": {"type": "DT_INT32"}, "value": {"tensor": {"dtype": "DT_INT32", "tensorShape": {}}}}}, {"name": "resnet_model/conv2d_44/SelfAttention_1/Reshape/shape/4", "op": "Const", "device": "/device:GPU:0", "attr": {"value": {"tensor": {"dtype": "DT_INT32", "tensorShape": {}}}, "dtype": {"type": "DT_INT32"}}}, {"name": "resnet_model/conv2d_44/SelfAttention_1/Reshape/shape/5", "op": "Const", "device": "/device:GPU:0", "attr": {"value": {"tensor": {"dtype": "DT_INT32", "tensorShape": {}}}, "dtype": {"type": "DT_INT32"}}}, {"name": "resnet_model/conv2d_44/SelfAttention_1/BroadcastTo/shape/1", "op": "Const", "device": "/device:GPU:0", "attr": {"dtype": {"type": "DT_INT32"}, "value": {"tensor": {"dtype": "DT_INT32", "tensorShape": {}}}}}, {"name": "resnet_model/conv2d_44/SelfAttention_1/BroadcastTo/shape/2", "op": "Const", "device": "/device:GPU:0", "attr": {"dtype": {"type": "DT_INT32"}, "value": {"tensor": {"dtype": "DT_INT32", "tensorShape": {}}}}}, {"name": "resnet_model/conv2d_44/SelfAttention_1/BroadcastTo/shape/3", "op": "Const", "device": "/device:GPU:0", "attr": {"value": {"tensor": {"dtype": "DT_INT32", "tensorShape": {}}}, "dtype": {"type": "DT_INT32"}}}, {"name": "resnet_model/conv2d_44/SelfAttention_1/BroadcastTo/shape/4", "op": "Const", "device": "/device:GPU:0", "attr": {"dtype": {"type": "DT_INT32"}, "value": {"tensor": {"dtype": "DT_INT32", "tensorShape": {}}}}}, {"name": "resnet_model/conv2d_44/SelfAttention_1/BroadcastTo/shape/5", "op": "Const", "device": "/device:GPU:0", "attr": {"dtype": {"type": "DT_INT32"}, "value": {"tensor": {"dtype": "DT_INT32", "tensorShape": {}}}}}, {"name": "resnet_model/conv2d_44/SelfAttention_1/Variable", "op": "Const", "attr": {"value": {"tensor": {"dtype": "DT_FLOAT", "tensorShape": {"dim": [{"size": "1"}, {"size": "1"}, {"size": "528"}, {"size": "328"}]}}}, "dtype": {"type": "DT_FLOAT"}}}, {"name": "resnet_model/conv2d_44/SelfAttention_1/strided_slice/stack", "op": "Const", "device": "/device:GPU:0", "attr": {"value": {"tensor": {"dtype": "DT_INT32", "tensorShape": {"dim": [{"size": "1"}]}}}, "dtype": {"type": "DT_INT32"}}}, {"name": "resnet_model/conv2d_44/SelfAttention_1/strided_slice/stack_1", "op": "Const", "device": "/device:GPU:0", "attr": {"value": {"tensor": {"dtype": "DT_INT32", "tensorShape": {"dim": [{"size": "1"}]}}}, "dtype": {"type": "DT_INT32"}}}, {"name": "resnet_model/conv2d_44/SelfAttention_1/strided_slice/stack_2", "op": "Const", "device": "/device:GPU:0", "attr": {"dtype": {"type": "DT_INT32"}, "value": {"tensor": {"dtype": "DT_INT32", "tensorShape": {"dim": [{"size": "1"}]}}}}}, {"name": "resnet_model/conv2d_44/SelfAttention_1/Reshape_1/shape/1", "op": "Const", "device": "/device:GPU:0", "attr": {"value": {"tensor": {"dtype": "DT_INT32", "tensorShape": {}}}, "dtype": {"type": "DT_INT32"}}}, {"name": "resnet_model/conv2d_44/SelfAttention_1/Reshape_1/shape/2", "op": "Const", "device": "/device:GPU:0", "attr": {"dtype": {"type": "DT_INT32"}, "value": {"tensor": {"dtype": "DT_INT32", "tensorShape": {}}}}}, {"name": "resnet_model/conv2d_44/SelfAttention_1/Reshape_1/shape/3", "op": "Const", "device": "/device:GPU:0", "attr": {"dtype": {"type": "DT_INT32"}, "value": {"tensor": {"dtype": "DT_INT32", "tensorShape": {}}}}}, {"name": "resnet_model/batch_normalization_40/gamma", "op": "Const", "attr": {"value": {"tensor": {"dtype": "DT_FLOAT", "tensorShape": {"dim": [{"size": "328"}]}}}, "dtype": {"type": "DT_FLOAT"}}}, {"name": "resnet_model/batch_normalization_40/beta", "op": "Const", "attr": {"dtype": {"type": "DT_FLOAT"}, "value": {"tensor": {"dtype": "DT_FLOAT", "tensorShape": {"dim": [{"size": "328"}]}}}}}, {"name": "resnet_model/batch_normalization_40/moving_mean", "op": "Const", "attr": {"value": {"tensor": {"dtype": "DT_FLOAT", "tensorShape": {"dim": [{"size": "328"}]}}}, "dtype": {"type": "DT_FLOAT"}}}, {"name": "resnet_model/batch_normalization_40/moving_variance", "op": "Const", "attr": {"dtype": {"type": "DT_FLOAT"}, "value": {"tensor": {"dtype": "DT_FLOAT", "tensorShape": {"dim": [{"size": "328"}]}}}}}, {"name": "resnet_model/Pad_6/paddings", "op": "Const", "device": "/device:GPU:0", "attr": {"dtype": {"type": "DT_INT32"}, "value": {"tensor": {"dtype": "DT_INT32", "tensorShape": {"dim": [{"size": "4"}, {"size": "2"}]}}}}}, {"name": "resnet_model/conv2d_45/EConv2D_1/Variable", "op": "Const", "attr": {"dtype": {"type": "DT_FLOAT"}, "value": {"tensor": {"dtype": "DT_FLOAT", "tensorShape": {"dim": [{"size": "3"}, {"size": "3"}, {"size": "328"}, {"size": "1"}]}}}}}, {"name": "resnet_model/conv2d_46/kernel", "op": "Const", "attr": {"dtype": {"type": "DT_FLOAT"}, "value": {"tensor": {"dtype": "DT_FLOAT", "tensorShape": {"dim": [{"size": "1"}, {"size": "1"}, {"size": "288"}, {"size": "944"}]}}}}}, {"name": "resnet_model/conv2d_43/SelfAttention_1/Reshape/shape/1", "op": "Const", "device": "/device:GPU:0", "attr": {"dtype": {"type": "DT_INT32"}, "value": {"tensor": {"dtype": "DT_INT32", "tensorShape": {}}}}}, {"name": "resnet_model/conv2d_43/SelfAttention_1/Reshape/shape/2", "op": "Const", "device": "/device:GPU:0", "attr": {"value": {"tensor": {"dtype": "DT_INT32", "tensorShape": {}}}, "dtype": {"type": "DT_INT32"}}}, {"name": "resnet_model/conv2d_43/SelfAttention_1/Reshape/shape/3", "op": "Const", "device": "/device:GPU:0", "attr": {"dtype": {"type": "DT_INT32"}, "value": {"tensor": {"dtype": "DT_INT32", "tensorShape": {}}}}}, {"name": "resnet_model/conv2d_43/SelfAttention_1/Reshape/shape/4", "op": "Const", "device": "/device:GPU:0", "attr": {"value": {"tensor": {"dtype": "DT_INT32", "tensorShape": {}}}, "dtype": {"type": "DT_INT32"}}}, {"name": "resnet_model/conv2d_43/SelfAttention_1/Reshape/shape/5", "op": "Const", "device": "/device:GPU:0", "attr": {"dtype": {"type": "DT_INT32"}, "value": {"tensor": {"dtype": "DT_INT32", "tensorShape": {}}}}}, {"name": "resnet_model/conv2d_43/SelfAttention_1/BroadcastTo/shape/1", "op": "Const", "device": "/device:GPU:0", "attr": {"dtype": {"type": "DT_INT32"}, "value": {"tensor": {"dtype": "DT_INT32", "tensorShape": {}}}}}, {"name": "resnet_model/conv2d_43/SelfAttention_1/BroadcastTo/shape/2", "op": "Const", "device": "/device:GPU:0", "attr": {"dtype": {"type": "DT_INT32"}, "value": {"tensor": {"dtype": "DT_INT32", "tensorShape": {}}}}}, {"name": "resnet_model/conv2d_43/SelfAttention_1/BroadcastTo/shape/3", "op": "Const", "device": "/device:GPU:0", "attr": {"dtype": {"type": "DT_INT32"}, "value": {"tensor": {"dtype": "DT_INT32", "tensorShape": {}}}}}, {"name": "resnet_model/conv2d_43/SelfAttention_1/BroadcastTo/shape/4", "op": "Const", "device": "/device:GPU:0", "attr": {"dtype": {"type": "DT_INT32"}, "value": {"tensor": {"dtype": "DT_INT32", "tensorShape": {}}}}}, {"name": "resnet_model/conv2d_43/SelfAttention_1/BroadcastTo/shape/5", "op": "Const", "device": "/device:GPU:0", "attr": {"value": {"tensor": {"dtype": "DT_INT32", "tensorShape": {}}}, "dtype": {"type": "DT_INT32"}}}, {"name": "resnet_model/conv2d_42/SelfAttention_1/Reshape/shape/1", "op": "Const", "device": "/device:GPU:0", "attr": {"dtype": {"type": "DT_INT32"}, "value": {"tensor": {"dtype": "DT_INT32", "tensorShape": {}}}}}, {"name": "resnet_model/conv2d_42/SelfAttention_1/Reshape/shape/2", "op": "Const", "device": "/device:GPU:0", "attr": {"value": {"tensor": {"dtype": "DT_INT32", "tensorShape": {}}}, "dtype": {"type": "DT_INT32"}}}, {"name": "resnet_model/conv2d_42/SelfAttention_1/Reshape/shape/3", "op": "Const", "device": "/device:GPU:0", "attr": {"value": {"tensor": {"dtype": "DT_INT32", "tensorShape": {}}}, "dtype": {"type": "DT_INT32"}}}, {"name": "resnet_model/conv2d_42/SelfAttention_1/Reshape/shape/4", "op": "Const", "device": "/device:GPU:0", "attr": {"dtype": {"type": "DT_INT32"}, "value": {"tensor": {"dtype": "DT_INT32", "tensorShape": {}}}}}, {"name": "resnet_model/conv2d_42/SelfAttention_1/Reshape/shape/5", "op": "Const", "device": "/device:GPU:0", "attr": {"dtype": {"type": "DT_INT32"}, "value": {"tensor": {"dtype": "DT_INT32", "tensorShape": {}}}}}, {"name": "resnet_model/conv2d_42/SelfAttention_1/BroadcastTo/shape/1", "op": "Const", "device": "/device:GPU:0", "attr": {"value": {"tensor": {"dtype": "DT_INT32", "tensorShape": {}}}, "dtype": {"type": "DT_INT32"}}}, {"name": "resnet_model/conv2d_42/SelfAttention_1/BroadcastTo/shape/2", "op": "Const", "device": "/device:GPU:0", "attr": {"dtype": {"type": "DT_INT32"}, "value": {"tensor": {"dtype": "DT_INT32", "tensorShape": {}}}}}, {"name": "resnet_model/conv2d_42/SelfAttention_1/BroadcastTo/shape/3", "op": "Const", "device": "/device:GPU:0", "attr": {"dtype": {"type": "DT_INT32"}, "value": {"tensor": {"dtype": "DT_INT32", "tensorShape": {}}}}}, {"name": "resnet_model/conv2d_42/SelfAttention_1/BroadcastTo/shape/4", "op": "Const", "device": "/device:GPU:0", "attr": {"dtype": {"type": "DT_INT32"}, "value": {"tensor": {"dtype": "DT_INT32", "tensorShape": {}}}}}, {"name": "resnet_model/conv2d_42/SelfAttention_1/BroadcastTo/shape/5", "op": "Const", "device": "/device:GPU:0", "attr": {"value": {"tensor": {"dtype": "DT_INT32", "tensorShape": {}}}, "dtype": {"type": "DT_INT32"}}}, {"name": "resnet_model/conv2d_41/SelfAttention_1/Reshape/shape/1", "op": "Const", "device": "/device:GPU:0", "attr": {"dtype": {"type": "DT_INT32"}, "value": {"tensor": {"dtype": "DT_INT32", "tensorShape": {}}}}}, {"name": "resnet_model/conv2d_41/SelfAttention_1/Reshape/shape/2", "op": "Const", "device": "/device:GPU:0", "attr": {"dtype": {"type": "DT_INT32"}, "value": {"tensor": {"dtype": "DT_INT32", "tensorShape": {}}}}}, {"name": "resnet_model/conv2d_41/SelfAttention_1/Reshape/shape/3", "op": "Const", "device": "/device:GPU:0", "attr": {"value": {"tensor": {"dtype": "DT_INT32", "tensorShape": {}}}, "dtype": {"type": "DT_INT32"}}}, {"name": "resnet_model/conv2d_41/SelfAttention_1/Reshape/shape/4", "op": "Const", "device": "/device:GPU:0", "attr": {"dtype": {"type": "DT_INT32"}, "value": {"tensor": {"dtype": "DT_INT32", "tensorShape": {}}}}}, {"name": "resnet_model/conv2d_41/SelfAttention_1/Reshape/shape/5", "op": "Const", "device": "/device:GPU:0", "attr": {"dtype": {"type": "DT_INT32"}, "value": {"tensor": {"dtype": "DT_INT32", "tensorShape": {}}}}}, {"name": "resnet_model/conv2d_41/SelfAttention_1/BroadcastTo/shape/1", "op": "Const", "device": "/device:GPU:0", "attr": {"dtype": {"type": "DT_INT32"}, "value": {"tensor": {"dtype": "DT_INT32", "tensorShape": {}}}}}, {"name": "resnet_model/conv2d_41/SelfAttention_1/BroadcastTo/shape/2", "op": "Const", "device": "/device:GPU:0", "attr": {"value": {"tensor": {"dtype": "DT_INT32", "tensorShape": {}}}, "dtype": {"type": "DT_INT32"}}}, {"name": "resnet_model/conv2d_41/SelfAttention_1/BroadcastTo/shape/3", "op": "Const", "device": "/device:GPU:0", "attr": {"value": {"tensor": {"dtype": "DT_INT32", "tensorShape": {}}}, "dtype": {"type": "DT_INT32"}}}, {"name": "resnet_model/conv2d_41/SelfAttention_1/BroadcastTo/shape/4", "op": "Const", "device": "/device:GPU:0", "attr": {"value": {"tensor": {"dtype": "DT_INT32", "tensorShape": {}}}, "dtype": {"type": "DT_INT32"}}}, {"name": "resnet_model/conv2d_41/SelfAttention_1/BroadcastTo/shape/5", "op": "Const", "device": "/device:GPU:0", "attr": {"dtype": {"type": "DT_INT32"}, "value": {"tensor": {"dtype": "DT_INT32", "tensorShape": {}}}}}, {"name": "resnet_model/conv2d_40/SelfAttention_1/Reshape/shape/1", "op": "Const", "device": "/device:GPU:0", "attr": {"dtype": {"type": "DT_INT32"}, "value": {"tensor": {"dtype": "DT_INT32", "tensorShape": {}}}}}, {"name": "resnet_model/conv2d_40/SelfAttention_1/Reshape/shape/2", "op": "Const", "device": "/device:GPU:0", "attr": {"dtype": {"type": "DT_INT32"}, "value": {"tensor": {"dtype": "DT_INT32", "tensorShape": {}}}}}, {"name": "resnet_model/conv2d_40/SelfAttention_1/Reshape/shape/3", "op": "Const", "device": "/device:GPU:0", "attr": {"dtype": {"type": "DT_INT32"}, "value": {"tensor": {"dtype": "DT_INT32", "tensorShape": {}}}}}, {"name": "resnet_model/conv2d_40/SelfAttention_1/Reshape/shape/4", "op": "Const", "device": "/device:GPU:0", "attr": {"dtype": {"type": "DT_INT32"}, "value": {"tensor": {"dtype": "DT_INT32", "tensorShape": {}}}}}, {"name": "resnet_model/conv2d_40/SelfAttention_1/Reshape/shape/5", "op": "Const", "device": "/device:GPU:0", "attr": {"dtype": {"type": "DT_INT32"}, "value": {"tensor": {"dtype": "DT_INT32", "tensorShape": {}}}}}, {"name": "resnet_model/conv2d_40/SelfAttention_1/BroadcastTo/shape/1", "op": "Const", "device": "/device:GPU:0", "attr": {"dtype": {"type": "DT_INT32"}, "value": {"tensor": {"dtype": "DT_INT32", "tensorShape": {}}}}}, {"name": "resnet_model/conv2d_40/SelfAttention_1/BroadcastTo/shape/2", "op": "Const", "device": "/device:GPU:0", "attr": {"dtype": {"type": "DT_INT32"}, "value": {"tensor": {"dtype": "DT_INT32", "tensorShape": {}}}}}, {"name": "resnet_model/conv2d_40/SelfAttention_1/BroadcastTo/shape/3", "op": "Const", "device": "/device:GPU:0", "attr": {"dtype": {"type": "DT_INT32"}, "value": {"tensor": {"dtype": "DT_INT32", "tensorShape": {}}}}}, {"name": "resnet_model/conv2d_40/SelfAttention_1/BroadcastTo/shape/4", "op": "Const", "device": "/device:GPU:0", "attr": {"value": {"tensor": {"dtype": "DT_INT32", "tensorShape": {}}}, "dtype": {"type": "DT_INT32"}}}, {"name": "resnet_model/conv2d_40/SelfAttention_1/BroadcastTo/shape/5", "op": "Const", "device": "/device:GPU:0", "attr": {"value": {"tensor": {"dtype": "DT_INT32", "tensorShape": {}}}, "dtype": {"type": "DT_INT32"}}}, {"name": "resnet_model/batch_normalization_36/gamma", "op": "Const", "attr": {"dtype": {"type": "DT_FLOAT"}, "value": {"tensor": {"dtype": "DT_FLOAT", "tensorShape": {"dim": [{"size": "528"}]}}}}}, {"name": "resnet_model/batch_normalization_36/beta", "op": "Const", "attr": {"dtype": {"type": "DT_FLOAT"}, "value": {"tensor": {"dtype": "DT_FLOAT", "tensorShape": {"dim": [{"size": "528"}]}}}}}, {"name": "resnet_model/batch_normalization_36/moving_mean", "op": "Const", "attr": {"dtype": {"type": "DT_FLOAT"}, "value": {"tensor": {"dtype": "DT_FLOAT", "tensorShape": {"dim": [{"size": "528"}]}}}}}, {"name": "resnet_model/batch_normalization_36/moving_variance", "op": "Const", "attr": {"dtype": {"type": "DT_FLOAT"}, "value": {"tensor": {"dtype": "DT_FLOAT", "tensorShape": {"dim": [{"size": "528"}]}}}}}, {"name": "resnet_model/conv2d_40/SelfAttention_1/Variable", "op": "Const", "attr": {"dtype": {"type": "DT_FLOAT"}, "value": {"tensor": {"dtype": "DT_FLOAT", "tensorShape": {"dim": [{"size": "1"}, {"size": "1"}, {"size": "528"}, {"size": "168"}]}}}}}, {"name": "resnet_model/conv2d_40/SelfAttention_1/strided_slice/stack", "op": "Const", "device": "/device:GPU:0", "attr": {"dtype": {"type": "DT_INT32"}, "value": {"tensor": {"dtype": "DT_INT32", "tensorShape": {"dim": [{"size": "1"}]}}}}}, {"name": "resnet_model/conv2d_40/SelfAttention_1/strided_slice/stack_1", "op": "Const", "device": "/device:GPU:0", "attr": {"dtype": {"type": "DT_INT32"}, "value": {"tensor": {"dtype": "DT_INT32", "tensorShape": {"dim": [{"size": "1"}]}}}}}, {"name": "resnet_model/conv2d_40/SelfAttention_1/strided_slice/stack_2", "op": "Const", "device": "/device:GPU:0", "attr": {"value": {"tensor": {"dtype": "DT_INT32", "tensorShape": {"dim": [{"size": "1"}]}}}, "dtype": {"type": "DT_INT32"}}}, {"name": "resnet_model/conv2d_40/SelfAttention_1/Reshape_1/shape/1", "op": "Const", "device": "/device:GPU:0", "attr": {"dtype": {"type": "DT_INT32"}, "value": {"tensor": {"dtype": "DT_INT32", "tensorShape": {}}}}}, {"name": "resnet_model/conv2d_40/SelfAttention_1/Reshape_1/shape/2", "op": "Const", "device": "/device:GPU:0", "attr": {"dtype": {"type": "DT_INT32"}, "value": {"tensor": {"dtype": "DT_INT32", "tensorShape": {}}}}}, {"name": "resnet_model/conv2d_40/SelfAttention_1/Reshape_1/shape/3", "op": "Const", "device": "/device:GPU:0", "attr": {"value": {"tensor": {"dtype": "DT_INT32", "tensorShape": {}}}, "dtype": {"type": "DT_INT32"}}}, {"name": "resnet_model/batch_normalization_37/gamma", "op": "Const", "attr": {"dtype": {"type": "DT_FLOAT"}, "value": {"tensor": {"dtype": "DT_FLOAT", "tensorShape": {"dim": [{"size": "168"}]}}}}}, {"name": "resnet_model/batch_normalization_37/beta", "op": "Const", "attr": {"value": {"tensor": {"dtype": "DT_FLOAT", "tensorShape": {"dim": [{"size": "168"}]}}}, "dtype": {"type": "DT_FLOAT"}}}, {"name": "resnet_model/batch_normalization_37/moving_mean", "op": "Const", "attr": {"dtype": {"type": "DT_FLOAT"}, "value": {"tensor": {"dtype": "DT_FLOAT", "tensorShape": {"dim": [{"size": "168"}]}}}}}, {"name": "resnet_model/batch_normalization_37/moving_variance", "op": "Const", "attr": {"dtype": {"type": "DT_FLOAT"}, "value": {"tensor": {"dtype": "DT_FLOAT", "tensorShape": {"dim": [{"size": "168"}]}}}}}, {"name": "resnet_model/conv2d_41/SelfAttention_1/EConv2D_1/Variable", "op": "Const", "attr": {"dtype": {"type": "DT_FLOAT"}, "value": {"tensor": {"dtype": "DT_FLOAT", "tensorShape": {"dim": [{"size": "3"}, {"size": "3"}, {"size": "168"}, {"size": "2"}]}}}}}, {"name": "resnet_model/conv2d_41/SelfAttention_1/EConv2D_1/Variable_1", "op": "Const", "attr": {"value": {"tensor": {"dtype": "DT_FLOAT", "tensorShape": {"dim": [{"size": "1"}, {"size": "1"}, {"size": "336"}, {"size": "168"}]}}}, "dtype": {"type": "DT_FLOAT"}}}, {"name": "resnet_model/conv2d_41/SelfAttention_1/strided_slice/stack", "op": "Const", "device": "/device:GPU:0", "attr": {"dtype": {"type": "DT_INT32"}, "value": {"tensor": {"dtype": "DT_INT32", "tensorShape": {"dim": [{"size": "1"}]}}}}}, {"name": "resnet_model/conv2d_41/SelfAttention_1/strided_slice/stack_1", "op": "Const", "device": "/device:GPU:0", "attr": {"value": {"tensor": {"dtype": "DT_INT32", "tensorShape": {"dim": [{"size": "1"}]}}}, "dtype": {"type": "DT_INT32"}}}, {"name": "resnet_model/conv2d_41/SelfAttention_1/strided_slice/stack_2", "op": "Const", "device": "/device:GPU:0", "attr": {"dtype": {"type": "DT_INT32"}, "value": {"tensor": {"dtype": "DT_INT32", "tensorShape": {"dim": [{"size": "1"}]}}}}}, {"name": "resnet_model/conv2d_41/SelfAttention_1/Reshape_1/shape/1", "op": "Const", "device": "/device:GPU:0", "attr": {"dtype": {"type": "DT_INT32"}, "value": {"tensor": {"dtype": "DT_INT32", "tensorShape": {}}}}}, {"name": "resnet_model/conv2d_41/SelfAttention_1/Reshape_1/shape/2", "op": "Const", "device": "/device:GPU:0", "attr": {"dtype": {"type": "DT_INT32"}, "value": {"tensor": {"dtype": "DT_INT32", "tensorShape": {}}}}}, {"name": "resnet_model/conv2d_41/SelfAttention_1/Reshape_1/shape/3", "op": "Const", "device": "/device:GPU:0", "attr": {"dtype": {"type": "DT_INT32"}, "value": {"tensor": {"dtype": "DT_INT32", "tensorShape": {}}}}}, {"name": "resnet_model/batch_normalization_38/gamma", "op": "Const", "attr": {"value": {"tensor": {"dtype": "DT_FLOAT", "tensorShape": {"dim": [{"size": "168"}]}}}, "dtype": {"type": "DT_FLOAT"}}}, {"name": "resnet_model/batch_normalization_38/beta", "op": "Const", "attr": {"dtype": {"type": "DT_FLOAT"}, "value": {"tensor": {"dtype": "DT_FLOAT", "tensorShape": {"dim": [{"size": "168"}]}}}}}, {"name": "resnet_model/batch_normalization_38/moving_mean", "op": "Const", "attr": {"value": {"tensor": {"dtype": "DT_FLOAT", "tensorShape": {"dim": [{"size": "168"}]}}}, "dtype": {"type": "DT_FLOAT"}}}, {"name": "resnet_model/batch_normalization_38/moving_variance", "op": "Const", "attr": {"dtype": {"type": "DT_FLOAT"}, "value": {"tensor": {"dtype": "DT_FLOAT", "tensorShape": {"dim": [{"size": "168"}]}}}}}, {"name": "resnet_model/conv2d_42/SelfAttention_1/Variable", "op": "Const", "attr": {"dtype": {"type": "DT_FLOAT"}, "value": {"tensor": {"dtype": "DT_FLOAT", "tensorShape": {"dim": [{"size": "1"}, {"size": "1"}, {"size": "168"}, {"size": "528"}]}}}}}, {"name": "resnet_model/conv2d_42/SelfAttention_1/strided_slice/stack", "op": "Const", "device": "/device:GPU:0", "attr": {"dtype": {"type": "DT_INT32"}, "value": {"tensor": {"dtype": "DT_INT32", "tensorShape": {"dim": [{"size": "1"}]}}}}}, {"name": "resnet_model/conv2d_42/SelfAttention_1/strided_slice/stack_1", "op": "Const", "device": "/device:GPU:0", "attr": {"dtype": {"type": "DT_INT32"}, "value": {"tensor": {"dtype": "DT_INT32", "tensorShape": {"dim": [{"size": "1"}]}}}}}, {"name": "resnet_model/conv2d_42/SelfAttention_1/strided_slice/stack_2", "op": "Const", "device": "/device:GPU:0", "attr": {"dtype": {"type": "DT_INT32"}, "value": {"tensor": {"dtype": "DT_INT32", "tensorShape": {"dim": [{"size": "1"}]}}}}}, {"name": "resnet_model/conv2d_42/SelfAttention_1/Reshape_1/shape/1", "op": "Const", "device": "/device:GPU:0", "attr": {"dtype": {"type": "DT_INT32"}, "value": {"tensor": {"dtype": "DT_INT32", "tensorShape": {}}}}}, {"name": "resnet_model/conv2d_42/SelfAttention_1/Reshape_1/shape/2", "op": "Const", "device": "/device:GPU:0", "attr": {"dtype": {"type": "DT_INT32"}, "value": {"tensor": {"dtype": "DT_INT32", "tensorShape": {}}}}}, {"name": "resnet_model/conv2d_42/SelfAttention_1/Reshape_1/shape/3", "op": "Const", "device": "/device:GPU:0", "attr": {"dtype": {"type": "DT_INT32"}, "value": {"tensor": {"dtype": "DT_INT32", "tensorShape": {}}}}}, {"name": "resnet_model/conv2d_39/SelfAttention_1/Reshape/shape/1", "op": "Const", "device": "/device:GPU:0", "attr": {"dtype": {"type": "DT_INT32"}, "value": {"tensor": {"dtype": "DT_INT32", "tensorShape": {}}}}}, {"name": "resnet_model/conv2d_39/SelfAttention_1/Reshape/shape/2", "op": "Const", "device": "/device:GPU:0", "attr": {"dtype": {"type": "DT_INT32"}, "value": {"tensor": {"dtype": "DT_INT32", "tensorShape": {}}}}}, {"name": "resnet_model/conv2d_39/SelfAttention_1/Reshape/shape/3", "op": "Const", "device": "/device:GPU:0", "attr": {"value": {"tensor": {"dtype": "DT_INT32", "tensorShape": {}}}, "dtype": {"type": "DT_INT32"}}}, {"name": "resnet_model/conv2d_39/SelfAttention_1/Reshape/shape/4", "op": "Const", "device": "/device:GPU:0", "attr": {"dtype": {"type": "DT_INT32"}, "value": {"tensor": {"dtype": "DT_INT32", "tensorShape": {}}}}}, {"name": "resnet_model/conv2d_39/SelfAttention_1/Reshape/shape/5", "op": "Const", "device": "/device:GPU:0", "attr": {"value": {"tensor": {"dtype": "DT_INT32", "tensorShape": {}}}, "dtype": {"type": "DT_INT32"}}}, {"name": "resnet_model/conv2d_39/SelfAttention_1/BroadcastTo/shape/1", "op": "Const", "device": "/device:GPU:0", "attr": {"dtype": {"type": "DT_INT32"}, "value": {"tensor": {"dtype": "DT_INT32", "tensorShape": {}}}}}, {"name": "resnet_model/conv2d_39/SelfAttention_1/BroadcastTo/shape/2", "op": "Const", "device": "/device:GPU:0", "attr": {"dtype": {"type": "DT_INT32"}, "value": {"tensor": {"dtype": "DT_INT32", "tensorShape": {}}}}}, {"name": "resnet_model/conv2d_39/SelfAttention_1/BroadcastTo/shape/3", "op": "Const", "device": "/device:GPU:0", "attr": {"dtype": {"type": "DT_INT32"}, "value": {"tensor": {"dtype": "DT_INT32", "tensorShape": {}}}}}, {"name": "resnet_model/conv2d_39/SelfAttention_1/BroadcastTo/shape/4", "op": "Const", "device": "/device:GPU:0", "attr": {"dtype": {"type": "DT_INT32"}, "value": {"tensor": {"dtype": "DT_INT32", "tensorShape": {}}}}}, {"name": "resnet_model/conv2d_39/SelfAttention_1/BroadcastTo/shape/5", "op": "Const", "device": "/device:GPU:0", "attr": {"dtype": {"type": "DT_INT32"}, "value": {"tensor": {"dtype": "DT_INT32", "tensorShape": {}}}}}, {"name": "resnet_model/conv2d_38/SelfAttention_1/Reshape/shape/1", "op": "Const", "device": "/device:GPU:0", "attr": {"value": {"tensor": {"dtype": "DT_INT32", "tensorShape": {}}}, "dtype": {"type": "DT_INT32"}}}, {"name": "resnet_model/conv2d_38/SelfAttention_1/Reshape/shape/2", "op": "Const", "device": "/device:GPU:0", "attr": {"dtype": {"type": "DT_INT32"}, "value": {"tensor": {"dtype": "DT_INT32", "tensorShape": {}}}}}, {"name": "resnet_model/conv2d_38/SelfAttention_1/Reshape/shape/3", "op": "Const", "device": "/device:GPU:0", "attr": {"dtype": {"type": "DT_INT32"}, "value": {"tensor": {"dtype": "DT_INT32", "tensorShape": {}}}}}, {"name": "resnet_model/conv2d_38/SelfAttention_1/Reshape/shape/4", "op": "Const", "device": "/device:GPU:0", "attr": {"dtype": {"type": "DT_INT32"}, "value": {"tensor": {"dtype": "DT_INT32", "tensorShape": {}}}}}, {"name": "resnet_model/conv2d_38/SelfAttention_1/Reshape/shape/5", "op": "Const", "device": "/device:GPU:0", "attr": {"value": {"tensor": {"dtype": "DT_INT32", "tensorShape": {}}}, "dtype": {"type": "DT_INT32"}}}, {"name": "resnet_model/conv2d_38/SelfAttention_1/BroadcastTo/shape/1", "op": "Const", "device": "/device:GPU:0", "attr": {"value": {"tensor": {"dtype": "DT_INT32", "tensorShape": {}}}, "dtype": {"type": "DT_INT32"}}}, {"name": "resnet_model/conv2d_38/SelfAttention_1/BroadcastTo/shape/2", "op": "Const", "device": "/device:GPU:0", "attr": {"dtype": {"type": "DT_INT32"}, "value": {"tensor": {"dtype": "DT_INT32", "tensorShape": {}}}}}, {"name": "resnet_model/conv2d_38/SelfAttention_1/BroadcastTo/shape/3", "op": "Const", "device": "/device:GPU:0", "attr": {"dtype": {"type": "DT_INT32"}, "value": {"tensor": {"dtype": "DT_INT32", "tensorShape": {}}}}}, {"name": "resnet_model/conv2d_38/SelfAttention_1/BroadcastTo/shape/4", "op": "Const", "device": "/device:GPU:0", "attr": {"dtype": {"type": "DT_INT32"}, "value": {"tensor": {"dtype": "DT_INT32", "tensorShape": {}}}}}, {"name": "resnet_model/conv2d_38/SelfAttention_1/BroadcastTo/shape/5", "op": "Const", "device": "/device:GPU:0", "attr": {"dtype": {"type": "DT_INT32"}, "value": {"tensor": {"dtype": "DT_INT32", "tensorShape": {}}}}}, {"name": "resnet_model/conv2d_37/SelfAttention_1/Reshape/shape/1", "op": "Const", "device": "/device:GPU:0", "attr": {"dtype": {"type": "DT_INT32"}, "value": {"tensor": {"dtype": "DT_INT32", "tensorShape": {}}}}}, {"name": "resnet_model/conv2d_37/SelfAttention_1/Reshape/shape/2", "op": "Const", "device": "/device:GPU:0", "attr": {"dtype": {"type": "DT_INT32"}, "value": {"tensor": {"dtype": "DT_INT32", "tensorShape": {}}}}}, {"name": "resnet_model/conv2d_37/SelfAttention_1/Reshape/shape/3", "op": "Const", "device": "/device:GPU:0", "attr": {"dtype": {"type": "DT_INT32"}, "value": {"tensor": {"dtype": "DT_INT32", "tensorShape": {}}}}}, {"name": "resnet_model/conv2d_37/SelfAttention_1/Reshape/shape/4", "op": "Const", "device": "/device:GPU:0", "attr": {"dtype": {"type": "DT_INT32"}, "value": {"tensor": {"dtype": "DT_INT32", "tensorShape": {}}}}}, {"name": "resnet_model/conv2d_37/SelfAttention_1/Reshape/shape/5", "op": "Const", "device": "/device:GPU:0", "attr": {"dtype": {"type": "DT_INT32"}, "value": {"tensor": {"dtype": "DT_INT32", "tensorShape": {}}}}}, {"name": "resnet_model/conv2d_37/SelfAttention_1/BroadcastTo/shape/1", "op": "Const", "device": "/device:GPU:0", "attr": {"dtype": {"type": "DT_INT32"}, "value": {"tensor": {"dtype": "DT_INT32", "tensorShape": {}}}}}, {"name": "resnet_model/conv2d_37/SelfAttention_1/BroadcastTo/shape/2", "op": "Const", "device": "/device:GPU:0", "attr": {"dtype": {"type": "DT_INT32"}, "value": {"tensor": {"dtype": "DT_INT32", "tensorShape": {}}}}}, {"name": "resnet_model/conv2d_37/SelfAttention_1/BroadcastTo/shape/3", "op": "Const", "device": "/device:GPU:0", "attr": {"dtype": {"type": "DT_INT32"}, "value": {"tensor": {"dtype": "DT_INT32", "tensorShape": {}}}}}, {"name": "resnet_model/conv2d_37/SelfAttention_1/BroadcastTo/shape/4", "op": "Const", "device": "/device:GPU:0", "attr": {"dtype": {"type": "DT_INT32"}, "value": {"tensor": {"dtype": "DT_INT32", "tensorShape": {}}}}}, {"name": "resnet_model/conv2d_37/SelfAttention_1/BroadcastTo/shape/5", "op": "Const", "device": "/device:GPU:0", "attr": {"value": {"tensor": {"dtype": "DT_INT32", "tensorShape": {}}}, "dtype": {"type": "DT_INT32"}}}, {"name": "resnet_model/batch_normalization_33/gamma", "op": "Const", "attr": {"value": {"tensor": {"dtype": "DT_FLOAT", "tensorShape": {"dim": [{"size": "528"}]}}}, "dtype": {"type": "DT_FLOAT"}}}, {"name": "resnet_model/batch_normalization_33/beta", "op": "Const", "attr": {"dtype": {"type": "DT_FLOAT"}, "value": {"tensor": {"dtype": "DT_FLOAT", "tensorShape": {"dim": [{"size": "528"}]}}}}}, {"name": "resnet_model/batch_normalization_33/moving_mean", "op": "Const", "attr": {"value": {"tensor": {"dtype": "DT_FLOAT", "tensorShape": {"dim": [{"size": "528"}]}}}, "dtype": {"type": "DT_FLOAT"}}}, {"name": "resnet_model/batch_normalization_33/moving_variance", "op": "Const", "attr": {"dtype": {"type": "DT_FLOAT"}, "value": {"tensor": {"dtype": "DT_FLOAT", "tensorShape": {"dim": [{"size": "528"}]}}}}}, {"name": "resnet_model/conv2d_37/SelfAttention_1/Variable", "op": "Const", "attr": {"dtype": {"type": "DT_FLOAT"}, "value": {"tensor": {"dtype": "DT_FLOAT", "tensorShape": {"dim": [{"size": "1"}, {"size": "1"}, {"size": "528"}, {"size": "168"}]}}}}}, {"name": "resnet_model/conv2d_37/SelfAttention_1/strided_slice/stack", "op": "Const", "device": "/device:GPU:0", "attr": {"dtype": {"type": "DT_INT32"}, "value": {"tensor": {"dtype": "DT_INT32", "tensorShape": {"dim": [{"size": "1"}]}}}}}, {"name": "resnet_model/conv2d_37/SelfAttention_1/strided_slice/stack_1", "op": "Const", "device": "/device:GPU:0", "attr": {"dtype": {"type": "DT_INT32"}, "value": {"tensor": {"dtype": "DT_INT32", "tensorShape": {"dim": [{"size": "1"}]}}}}}, {"name": "resnet_model/conv2d_37/SelfAttention_1/strided_slice/stack_2", "op": "Const", "device": "/device:GPU:0", "attr": {"dtype": {"type": "DT_INT32"}, "value": {"tensor": {"dtype": "DT_INT32", "tensorShape": {"dim": [{"size": "1"}]}}}}}, {"name": "resnet_model/conv2d_37/SelfAttention_1/Reshape_1/shape/1", "op": "Const", "device": "/device:GPU:0", "attr": {"value": {"tensor": {"dtype": "DT_INT32", "tensorShape": {}}}, "dtype": {"type": "DT_INT32"}}}, {"name": "resnet_model/conv2d_37/SelfAttention_1/Reshape_1/shape/2", "op": "Const", "device": "/device:GPU:0", "attr": {"dtype": {"type": "DT_INT32"}, "value": {"tensor": {"dtype": "DT_INT32", "tensorShape": {}}}}}, {"name": "resnet_model/conv2d_37/SelfAttention_1/Reshape_1/shape/3", "op": "Const", "device": "/device:GPU:0", "attr": {"dtype": {"type": "DT_INT32"}, "value": {"tensor": {"dtype": "DT_INT32", "tensorShape": {}}}}}, {"name": "resnet_model/batch_normalization_34/gamma", "op": "Const", "attr": {"value": {"tensor": {"dtype": "DT_FLOAT", "tensorShape": {"dim": [{"size": "168"}]}}}, "dtype": {"type": "DT_FLOAT"}}}, {"name": "resnet_model/batch_normalization_34/beta", "op": "Const", "attr": {"dtype": {"type": "DT_FLOAT"}, "value": {"tensor": {"dtype": "DT_FLOAT", "tensorShape": {"dim": [{"size": "168"}]}}}}}, {"name": "resnet_model/batch_normalization_34/moving_mean", "op": "Const", "attr": {"dtype": {"type": "DT_FLOAT"}, "value": {"tensor": {"dtype": "DT_FLOAT", "tensorShape": {"dim": [{"size": "168"}]}}}}}, {"name": "resnet_model/batch_normalization_34/moving_variance", "op": "Const", "attr": {"value": {"tensor": {"dtype": "DT_FLOAT", "tensorShape": {"dim": [{"size": "168"}]}}}, "dtype": {"type": "DT_FLOAT"}}}, {"name": "resnet_model/conv2d_38/SelfAttention_1/EConv2D_1/Variable", "op": "Const", "attr": {"dtype": {"type": "DT_FLOAT"}, "value": {"tensor": {"dtype": "DT_FLOAT", "tensorShape": {"dim": [{"size": "3"}, {"size": "3"}, {"size": "168"}, {"size": "2"}]}}}}}, {"name": "resnet_model/conv2d_38/SelfAttention_1/EConv2D_1/Variable_1", "op": "Const", "attr": {"dtype": {"type": "DT_FLOAT"}, "value": {"tensor": {"dtype": "DT_FLOAT", "tensorShape": {"dim": [{"size": "1"}, {"size": "1"}, {"size": "336"}, {"size": "172"}]}}}}}, {"name": "resnet_model/conv2d_38/SelfAttention_1/strided_slice/stack", "op": "Const", "device": "/device:GPU:0", "attr": {"dtype": {"type": "DT_INT32"}, "value": {"tensor": {"dtype": "DT_INT32", "tensorShape": {"dim": [{"size": "1"}]}}}}}, {"name": "resnet_model/conv2d_38/SelfAttention_1/strided_slice/stack_1", "op": "Const", "device": "/device:GPU:0", "attr": {"dtype": {"type": "DT_INT32"}, "value": {"tensor": {"dtype": "DT_INT32", "tensorShape": {"dim": [{"size": "1"}]}}}}}, {"name": "resnet_model/conv2d_38/SelfAttention_1/strided_slice/stack_2", "op": "Const", "device": "/device:GPU:0", "attr": {"dtype": {"type": "DT_INT32"}, "value": {"tensor": {"dtype": "DT_INT32", "tensorShape": {"dim": [{"size": "1"}]}}}}}, {"name": "resnet_model/conv2d_38/SelfAttention_1/Reshape_1/shape/1", "op": "Const", "device": "/device:GPU:0", "attr": {"value": {"tensor": {"dtype": "DT_INT32", "tensorShape": {}}}, "dtype": {"type": "DT_INT32"}}}, {"name": "resnet_model/conv2d_38/SelfAttention_1/Reshape_1/shape/2", "op": "Const", "device": "/device:GPU:0", "attr": {"value": {"tensor": {"dtype": "DT_INT32", "tensorShape": {}}}, "dtype": {"type": "DT_INT32"}}}, {"name": "resnet_model/conv2d_38/SelfAttention_1/Reshape_1/shape/3", "op": "Const", "device": "/device:GPU:0", "attr": {"dtype": {"type": "DT_INT32"}, "value": {"tensor": {"dtype": "DT_INT32", "tensorShape": {}}}}}, {"name": "resnet_model/batch_normalization_35/gamma", "op": "Const", "attr": {"dtype": {"type": "DT_FLOAT"}, "value": {"tensor": {"dtype": "DT_FLOAT", "tensorShape": {"dim": [{"size": "172"}]}}}}}, {"name": "resnet_model/batch_normalization_35/beta", "op": "Const", "attr": {"dtype": {"type": "DT_FLOAT"}, "value": {"tensor": {"dtype": "DT_FLOAT", "tensorShape": {"dim": [{"size": "172"}]}}}}}, {"name": "resnet_model/batch_normalization_35/moving_mean", "op": "Const", "attr": {"dtype": {"type": "DT_FLOAT"}, "value": {"tensor": {"dtype": "DT_FLOAT", "tensorShape": {"dim": [{"size": "172"}]}}}}}, {"name": "resnet_model/batch_normalization_35/moving_variance", "op": "Const", "attr": {"value": {"tensor": {"dtype": "DT_FLOAT", "tensorShape": {"dim": [{"size": "172"}]}}}, "dtype": {"type": "DT_FLOAT"}}}, {"name": "resnet_model/conv2d_39/SelfAttention_1/Variable", "op": "Const", "attr": {"dtype": {"type": "DT_FLOAT"}, "value": {"tensor": {"dtype": "DT_FLOAT", "tensorShape": {"dim": [{"size": "1"}, {"size": "1"}, {"size": "172"}, {"size": "528"}]}}}}}, {"name": "resnet_model/conv2d_39/SelfAttention_1/strided_slice/stack", "op": "Const", "device": "/device:GPU:0", "attr": {"value": {"tensor": {"dtype": "DT_INT32", "tensorShape": {"dim": [{"size": "1"}]}}}, "dtype": {"type": "DT_INT32"}}}, {"name": "resnet_model/conv2d_39/SelfAttention_1/strided_slice/stack_1", "op": "Const", "device": "/device:GPU:0", "attr": {"dtype": {"type": "DT_INT32"}, "value": {"tensor": {"dtype": "DT_INT32", "tensorShape": {"dim": [{"size": "1"}]}}}}}, {"name": "resnet_model/conv2d_39/SelfAttention_1/strided_slice/stack_2", "op": "Const", "device": "/device:GPU:0", "attr": {"dtype": {"type": "DT_INT32"}, "value": {"tensor": {"dtype": "DT_INT32", "tensorShape": {"dim": [{"size": "1"}]}}}}}, {"name": "resnet_model/conv2d_39/SelfAttention_1/Reshape_1/shape/1", "op": "Const", "device": "/device:GPU:0", "attr": {"value": {"tensor": {"dtype": "DT_INT32", "tensorShape": {}}}, "dtype": {"type": "DT_INT32"}}}, {"name": "resnet_model/conv2d_39/SelfAttention_1/Reshape_1/shape/2", "op": "Const", "device": "/device:GPU:0", "attr": {"dtype": {"type": "DT_INT32"}, "value": {"tensor": {"dtype": "DT_INT32", "tensorShape": {}}}}}, {"name": "resnet_model/conv2d_39/SelfAttention_1/Reshape_1/shape/3", "op": "Const", "device": "/device:GPU:0", "attr": {"value": {"tensor": {"dtype": "DT_INT32", "tensorShape": {}}}, "dtype": {"type": "DT_INT32"}}}, {"name": "resnet_model/conv2d_36/SelfAttention_1/Reshape/shape/1", "op": "Const", "device": "/device:GPU:0", "attr": {"dtype": {"type": "DT_INT32"}, "value": {"tensor": {"dtype": "DT_INT32", "tensorShape": {}}}}}, {"name": "resnet_model/conv2d_36/SelfAttention_1/Reshape/shape/2", "op": "Const", "device": "/device:GPU:0", "attr": {"dtype": {"type": "DT_INT32"}, "value": {"tensor": {"dtype": "DT_INT32", "tensorShape": {}}}}}, {"name": "resnet_model/conv2d_36/SelfAttention_1/Reshape/shape/3", "op": "Const", "device": "/device:GPU:0", "attr": {"dtype": {"type": "DT_INT32"}, "value": {"tensor": {"dtype": "DT_INT32", "tensorShape": {}}}}}, {"name": "resnet_model/conv2d_36/SelfAttention_1/Reshape/shape/4", "op": "Const", "device": "/device:GPU:0", "attr": {"dtype": {"type": "DT_INT32"}, "value": {"tensor": {"dtype": "DT_INT32", "tensorShape": {}}}}}, {"name": "resnet_model/conv2d_36/SelfAttention_1/Reshape/shape/5", "op": "Const", "device": "/device:GPU:0", "attr": {"dtype": {"type": "DT_INT32"}, "value": {"tensor": {"dtype": "DT_INT32", "tensorShape": {}}}}}, {"name": "resnet_model/conv2d_36/SelfAttention_1/BroadcastTo/shape/1", "op": "Const", "device": "/device:GPU:0", "attr": {"dtype": {"type": "DT_INT32"}, "value": {"tensor": {"dtype": "DT_INT32", "tensorShape": {}}}}}, {"name": "resnet_model/conv2d_36/SelfAttention_1/BroadcastTo/shape/2", "op": "Const", "device": "/device:GPU:0", "attr": {"dtype": {"type": "DT_INT32"}, "value": {"tensor": {"dtype": "DT_INT32", "tensorShape": {}}}}}, {"name": "resnet_model/conv2d_36/SelfAttention_1/BroadcastTo/shape/3", "op": "Const", "device": "/device:GPU:0", "attr": {"value": {"tensor": {"dtype": "DT_INT32", "tensorShape": {}}}, "dtype": {"type": "DT_INT32"}}}, {"name": "resnet_model/conv2d_36/SelfAttention_1/BroadcastTo/shape/4", "op": "Const", "device": "/device:GPU:0", "attr": {"value": {"tensor": {"dtype": "DT_INT32", "tensorShape": {}}}, "dtype": {"type": "DT_INT32"}}}, {"name": "resnet_model/conv2d_36/SelfAttention_1/BroadcastTo/shape/5", "op": "Const", "device": "/device:GPU:0", "attr": {"value": {"tensor": {"dtype": "DT_INT32", "tensorShape": {}}}, "dtype": {"type": "DT_INT32"}}}, {"name": "resnet_model/conv2d_35/SelfAttention_1/Reshape/shape/1", "op": "Const", "device": "/device:GPU:0", "attr": {"dtype": {"type": "DT_INT32"}, "value": {"tensor": {"dtype": "DT_INT32", "tensorShape": {}}}}}, {"name": "resnet_model/conv2d_35/SelfAttention_1/Reshape/shape/2", "op": "Const", "device": "/device:GPU:0", "attr": {"value": {"tensor": {"dtype": "DT_INT32", "tensorShape": {}}}, "dtype": {"type": "DT_INT32"}}}, {"name": "resnet_model/conv2d_35/SelfAttention_1/Reshape/shape/3", "op": "Const", "device": "/device:GPU:0", "attr": {"dtype": {"type": "DT_INT32"}, "value": {"tensor": {"dtype": "DT_INT32", "tensorShape": {}}}}}, {"name": "resnet_model/conv2d_35/SelfAttention_1/Reshape/shape/4", "op": "Const", "device": "/device:GPU:0", "attr": {"dtype": {"type": "DT_INT32"}, "value": {"tensor": {"dtype": "DT_INT32", "tensorShape": {}}}}}, {"name": "resnet_model/conv2d_35/SelfAttention_1/Reshape/shape/5", "op": "Const", "device": "/device:GPU:0", "attr": {"dtype": {"type": "DT_INT32"}, "value": {"tensor": {"dtype": "DT_INT32", "tensorShape": {}}}}}, {"name": "resnet_model/conv2d_35/SelfAttention_1/BroadcastTo/shape/1", "op": "Const", "device": "/device:GPU:0", "attr": {"dtype": {"type": "DT_INT32"}, "value": {"tensor": {"dtype": "DT_INT32", "tensorShape": {}}}}}, {"name": "resnet_model/conv2d_35/SelfAttention_1/BroadcastTo/shape/2", "op": "Const", "device": "/device:GPU:0", "attr": {"dtype": {"type": "DT_INT32"}, "value": {"tensor": {"dtype": "DT_INT32", "tensorShape": {}}}}}, {"name": "resnet_model/conv2d_35/SelfAttention_1/BroadcastTo/shape/3", "op": "Const", "device": "/device:GPU:0", "attr": {"dtype": {"type": "DT_INT32"}, "value": {"tensor": {"dtype": "DT_INT32", "tensorShape": {}}}}}, {"name": "resnet_model/conv2d_35/SelfAttention_1/BroadcastTo/shape/4", "op": "Const", "device": "/device:GPU:0", "attr": {"dtype": {"type": "DT_INT32"}, "value": {"tensor": {"dtype": "DT_INT32", "tensorShape": {}}}}}, {"name": "resnet_model/conv2d_35/SelfAttention_1/BroadcastTo/shape/5", "op": "Const", "device": "/device:GPU:0", "attr": {"dtype": {"type": "DT_INT32"}, "value": {"tensor": {"dtype": "DT_INT32", "tensorShape": {}}}}}, {"name": "resnet_model/conv2d_34/SelfAttention_1/Reshape/shape/1", "op": "Const", "device": "/device:GPU:0", "attr": {"value": {"tensor": {"dtype": "DT_INT32", "tensorShape": {}}}, "dtype": {"type": "DT_INT32"}}}, {"name": "resnet_model/conv2d_34/SelfAttention_1/Reshape/shape/2", "op": "Const", "device": "/device:GPU:0", "attr": {"dtype": {"type": "DT_INT32"}, "value": {"tensor": {"dtype": "DT_INT32", "tensorShape": {}}}}}, {"name": "resnet_model/conv2d_34/SelfAttention_1/Reshape/shape/3", "op": "Const", "device": "/device:GPU:0", "attr": {"dtype": {"type": "DT_INT32"}, "value": {"tensor": {"dtype": "DT_INT32", "tensorShape": {}}}}}, {"name": "resnet_model/conv2d_34/SelfAttention_1/Reshape/shape/4", "op": "Const", "device": "/device:GPU:0", "attr": {"dtype": {"type": "DT_INT32"}, "value": {"tensor": {"dtype": "DT_INT32", "tensorShape": {}}}}}, {"name": "resnet_model/conv2d_34/SelfAttention_1/Reshape/shape/5", "op": "Const", "device": "/device:GPU:0", "attr": {"dtype": {"type": "DT_INT32"}, "value": {"tensor": {"dtype": "DT_INT32", "tensorShape": {}}}}}, {"name": "resnet_model/conv2d_34/SelfAttention_1/BroadcastTo/shape/1", "op": "Const", "device": "/device:GPU:0", "attr": {"value": {"tensor": {"dtype": "DT_INT32", "tensorShape": {}}}, "dtype": {"type": "DT_INT32"}}}, {"name": "resnet_model/conv2d_34/SelfAttention_1/BroadcastTo/shape/2", "op": "Const", "device": "/device:GPU:0", "attr": {"dtype": {"type": "DT_INT32"}, "value": {"tensor": {"dtype": "DT_INT32", "tensorShape": {}}}}}, {"name": "resnet_model/conv2d_34/SelfAttention_1/BroadcastTo/shape/3", "op": "Const", "device": "/device:GPU:0", "attr": {"value": {"tensor": {"dtype": "DT_INT32", "tensorShape": {}}}, "dtype": {"type": "DT_INT32"}}}, {"name": "resnet_model/conv2d_34/SelfAttention_1/BroadcastTo/shape/4", "op": "Const", "device": "/device:GPU:0", "attr": {"value": {"tensor": {"dtype": "DT_INT32", "tensorShape": {}}}, "dtype": {"type": "DT_INT32"}}}, {"name": "resnet_model/conv2d_34/SelfAttention_1/BroadcastTo/shape/5", "op": "Const", "device": "/device:GPU:0", "attr": {"value": {"tensor": {"dtype": "DT_INT32", "tensorShape": {}}}, "dtype": {"type": "DT_INT32"}}}, {"name": "resnet_model/batch_normalization_30/gamma", "op": "Const", "attr": {"dtype": {"type": "DT_FLOAT"}, "value": {"tensor": {"dtype": "DT_FLOAT", "tensorShape": {"dim": [{"size": "528"}]}}}}}, {"name": "resnet_model/batch_normalization_30/beta", "op": "Const", "attr": {"value": {"tensor": {"dtype": "DT_FLOAT", "tensorShape": {"dim": [{"size": "528"}]}}}, "dtype": {"type": "DT_FLOAT"}}}, {"name": "resnet_model/batch_normalization_30/moving_mean", "op": "Const", "attr": {"dtype": {"type": "DT_FLOAT"}, "value": {"tensor": {"dtype": "DT_FLOAT", "tensorShape": {"dim": [{"size": "528"}]}}}}}, {"name": "resnet_model/batch_normalization_30/moving_variance", "op": "Const", "attr": {"value": {"tensor": {"dtype": "DT_FLOAT", "tensorShape": {"dim": [{"size": "528"}]}}}, "dtype": {"type": "DT_FLOAT"}}}, {"name": "resnet_model/conv2d_34/SelfAttention_1/Variable", "op": "Const", "attr": {"value": {"tensor": {"dtype": "DT_FLOAT", "tensorShape": {"dim": [{"size": "1"}, {"size": "1"}, {"size": "528"}, {"size": "168"}]}}}, "dtype": {"type": "DT_FLOAT"}}}, {"name": "resnet_model/conv2d_34/SelfAttention_1/strided_slice/stack", "op": "Const", "device": "/device:GPU:0", "attr": {"dtype": {"type": "DT_INT32"}, "value": {"tensor": {"dtype": "DT_INT32", "tensorShape": {"dim": [{"size": "1"}]}}}}}, {"name": "resnet_model/conv2d_34/SelfAttention_1/strided_slice/stack_1", "op": "Const", "device": "/device:GPU:0", "attr": {"value": {"tensor": {"dtype": "DT_INT32", "tensorShape": {"dim": [{"size": "1"}]}}}, "dtype": {"type": "DT_INT32"}}}, {"name": "resnet_model/conv2d_34/SelfAttention_1/strided_slice/stack_2", "op": "Const", "device": "/device:GPU:0", "attr": {"value": {"tensor": {"dtype": "DT_INT32", "tensorShape": {"dim": [{"size": "1"}]}}}, "dtype": {"type": "DT_INT32"}}}, {"name": "resnet_model/conv2d_34/SelfAttention_1/Reshape_1/shape/1", "op": "Const", "device": "/device:GPU:0", "attr": {"dtype": {"type": "DT_INT32"}, "value": {"tensor": {"dtype": "DT_INT32", "tensorShape": {}}}}}, {"name": "resnet_model/conv2d_34/SelfAttention_1/Reshape_1/shape/2", "op": "Const", "device": "/device:GPU:0", "attr": {"value": {"tensor": {"dtype": "DT_INT32", "tensorShape": {}}}, "dtype": {"type": "DT_INT32"}}}, {"name": "resnet_model/conv2d_34/SelfAttention_1/Reshape_1/shape/3", "op": "Const", "device": "/device:GPU:0", "attr": {"value": {"tensor": {"dtype": "DT_INT32", "tensorShape": {}}}, "dtype": {"type": "DT_INT32"}}}, {"name": "resnet_model/batch_normalization_31/gamma", "op": "Const", "attr": {"value": {"tensor": {"dtype": "DT_FLOAT", "tensorShape": {"dim": [{"size": "168"}]}}}, "dtype": {"type": "DT_FLOAT"}}}, {"name": "resnet_model/batch_normalization_31/beta", "op": "Const", "attr": {"value": {"tensor": {"dtype": "DT_FLOAT", "tensorShape": {"dim": [{"size": "168"}]}}}, "dtype": {"type": "DT_FLOAT"}}}, {"name": "resnet_model/batch_normalization_31/moving_mean", "op": "Const", "attr": {"value": {"tensor": {"dtype": "DT_FLOAT", "tensorShape": {"dim": [{"size": "168"}]}}}, "dtype": {"type": "DT_FLOAT"}}}, {"name": "resnet_model/batch_normalization_31/moving_variance", "op": "Const", "attr": {"value": {"tensor": {"dtype": "DT_FLOAT", "tensorShape": {"dim": [{"size": "168"}]}}}, "dtype": {"type": "DT_FLOAT"}}}, {"name": "resnet_model/conv2d_35/SelfAttention_1/EConv2D_1/Variable", "op": "Const", "attr": {"value": {"tensor": {"dtype": "DT_FLOAT", "tensorShape": {"dim": [{"size": "3"}, {"size": "3"}, {"size": "168"}, {"size": "2"}]}}}, "dtype": {"type": "DT_FLOAT"}}}, {"name": "resnet_model/conv2d_35/SelfAttention_1/EConv2D_1/Variable_1", "op": "Const", "attr": {"value": {"tensor": {"dtype": "DT_FLOAT", "tensorShape": {"dim": [{"size": "1"}, {"size": "1"}, {"size": "336"}, {"size": "168"}]}}}, "dtype": {"type": "DT_FLOAT"}}}, {"name": "resnet_model/conv2d_35/SelfAttention_1/strided_slice/stack", "op": "Const", "device": "/device:GPU:0", "attr": {"dtype": {"type": "DT_INT32"}, "value": {"tensor": {"dtype": "DT_INT32", "tensorShape": {"dim": [{"size": "1"}]}}}}}, {"name": "resnet_model/conv2d_35/SelfAttention_1/strided_slice/stack_1", "op": "Const", "device": "/device:GPU:0", "attr": {"value": {"tensor": {"dtype": "DT_INT32", "tensorShape": {"dim": [{"size": "1"}]}}}, "dtype": {"type": "DT_INT32"}}}, {"name": "resnet_model/conv2d_35/SelfAttention_1/strided_slice/stack_2", "op": "Const", "device": "/device:GPU:0", "attr": {"value": {"tensor": {"dtype": "DT_INT32", "tensorShape": {"dim": [{"size": "1"}]}}}, "dtype": {"type": "DT_INT32"}}}, {"name": "resnet_model/conv2d_35/SelfAttention_1/Reshape_1/shape/1", "op": "Const", "device": "/device:GPU:0", "attr": {"dtype": {"type": "DT_INT32"}, "value": {"tensor": {"dtype": "DT_INT32", "tensorShape": {}}}}}, {"name": "resnet_model/conv2d_35/SelfAttention_1/Reshape_1/shape/2", "op": "Const", "device": "/device:GPU:0", "attr": {"dtype": {"type": "DT_INT32"}, "value": {"tensor": {"dtype": "DT_INT32", "tensorShape": {}}}}}, {"name": "resnet_model/conv2d_35/SelfAttention_1/Reshape_1/shape/3", "op": "Const", "device": "/device:GPU:0", "attr": {"value": {"tensor": {"dtype": "DT_INT32", "tensorShape": {}}}, "dtype": {"type": "DT_INT32"}}}, {"name": "resnet_model/batch_normalization_32/gamma", "op": "Const", "attr": {"dtype": {"type": "DT_FLOAT"}, "value": {"tensor": {"dtype": "DT_FLOAT", "tensorShape": {"dim": [{"size": "168"}]}}}}}, {"name": "resnet_model/batch_normalization_32/beta", "op": "Const", "attr": {"dtype": {"type": "DT_FLOAT"}, "value": {"tensor": {"dtype": "DT_FLOAT", "tensorShape": {"dim": [{"size": "168"}]}}}}}, {"name": "resnet_model/batch_normalization_32/moving_mean", "op": "Const", "attr": {"dtype": {"type": "DT_FLOAT"}, "value": {"tensor": {"dtype": "DT_FLOAT", "tensorShape": {"dim": [{"size": "168"}]}}}}}, {"name": "resnet_model/batch_normalization_32/moving_variance", "op": "Const", "attr": {"dtype": {"type": "DT_FLOAT"}, "value": {"tensor": {"dtype": "DT_FLOAT", "tensorShape": {"dim": [{"size": "168"}]}}}}}, {"name": "resnet_model/conv2d_36/SelfAttention_1/Variable", "op": "Const", "attr": {"value": {"tensor": {"dtype": "DT_FLOAT", "tensorShape": {"dim": [{"size": "1"}, {"size": "1"}, {"size": "168"}, {"size": "528"}]}}}, "dtype": {"type": "DT_FLOAT"}}}, {"name": "resnet_model/conv2d_36/SelfAttention_1/strided_slice/stack", "op": "Const", "device": "/device:GPU:0", "attr": {"dtype": {"type": "DT_INT32"}, "value": {"tensor": {"dtype": "DT_INT32", "tensorShape": {"dim": [{"size": "1"}]}}}}}, {"name": "resnet_model/conv2d_36/SelfAttention_1/strided_slice/stack_1", "op": "Const", "device": "/device:GPU:0", "attr": {"value": {"tensor": {"dtype": "DT_INT32", "tensorShape": {"dim": [{"size": "1"}]}}}, "dtype": {"type": "DT_INT32"}}}, {"name": "resnet_model/conv2d_36/SelfAttention_1/strided_slice/stack_2", "op": "Const", "device": "/device:GPU:0", "attr": {"dtype": {"type": "DT_INT32"}, "value": {"tensor": {"dtype": "DT_INT32", "tensorShape": {"dim": [{"size": "1"}]}}}}}, {"name": "resnet_model/conv2d_36/SelfAttention_1/Reshape_1/shape/1", "op": "Const", "device": "/device:GPU:0", "attr": {"dtype": {"type": "DT_INT32"}, "value": {"tensor": {"dtype": "DT_INT32", "tensorShape": {}}}}}, {"name": "resnet_model/conv2d_36/SelfAttention_1/Reshape_1/shape/2", "op": "Const", "device": "/device:GPU:0", "attr": {"dtype": {"type": "DT_INT32"}, "value": {"tensor": {"dtype": "DT_INT32", "tensorShape": {}}}}}, {"name": "resnet_model/conv2d_36/SelfAttention_1/Reshape_1/shape/3", "op": "Const", "device": "/device:GPU:0", "attr": {"value": {"tensor": {"dtype": "DT_INT32", "tensorShape": {}}}, "dtype": {"type": "DT_INT32"}}}, {"name": "resnet_model/conv2d_33/SelfAttention_1/Reshape/shape/1", "op": "Const", "device": "/device:GPU:0", "attr": {"value": {"tensor": {"dtype": "DT_INT32", "tensorShape": {}}}, "dtype": {"type": "DT_INT32"}}}, {"name": "resnet_model/conv2d_33/SelfAttention_1/Reshape/shape/2", "op": "Const", "device": "/device:GPU:0", "attr": {"dtype": {"type": "DT_INT32"}, "value": {"tensor": {"dtype": "DT_INT32", "tensorShape": {}}}}}, {"name": "resnet_model/conv2d_33/SelfAttention_1/Reshape/shape/3", "op": "Const", "device": "/device:GPU:0", "attr": {"value": {"tensor": {"dtype": "DT_INT32", "tensorShape": {}}}, "dtype": {"type": "DT_INT32"}}}, {"name": "resnet_model/conv2d_33/SelfAttention_1/Reshape/shape/4", "op": "Const", "device": "/device:GPU:0", "attr": {"dtype": {"type": "DT_INT32"}, "value": {"tensor": {"dtype": "DT_INT32", "tensorShape": {}}}}}, {"name": "resnet_model/conv2d_33/SelfAttention_1/Reshape/shape/5", "op": "Const", "device": "/device:GPU:0", "attr": {"dtype": {"type": "DT_INT32"}, "value": {"tensor": {"dtype": "DT_INT32", "tensorShape": {}}}}}, {"name": "resnet_model/conv2d_33/SelfAttention_1/BroadcastTo/shape/1", "op": "Const", "device": "/device:GPU:0", "attr": {"value": {"tensor": {"dtype": "DT_INT32", "tensorShape": {}}}, "dtype": {"type": "DT_INT32"}}}, {"name": "resnet_model/conv2d_33/SelfAttention_1/BroadcastTo/shape/2", "op": "Const", "device": "/device:GPU:0", "attr": {"value": {"tensor": {"dtype": "DT_INT32", "tensorShape": {}}}, "dtype": {"type": "DT_INT32"}}}, {"name": "resnet_model/conv2d_33/SelfAttention_1/BroadcastTo/shape/3", "op": "Const", "device": "/device:GPU:0", "attr": {"dtype": {"type": "DT_INT32"}, "value": {"tensor": {"dtype": "DT_INT32", "tensorShape": {}}}}}, {"name": "resnet_model/conv2d_33/SelfAttention_1/BroadcastTo/shape/4", "op": "Const", "device": "/device:GPU:0", "attr": {"value": {"tensor": {"dtype": "DT_INT32", "tensorShape": {}}}, "dtype": {"type": "DT_INT32"}}}, {"name": "resnet_model/conv2d_33/SelfAttention_1/BroadcastTo/shape/5", "op": "Const", "device": "/device:GPU:0", "attr": {"value": {"tensor": {"dtype": "DT_INT32", "tensorShape": {}}}, "dtype": {"type": "DT_INT32"}}}, {"name": "resnet_model/conv2d_32/SelfAttention_1/Reshape/shape/1", "op": "Const", "device": "/device:GPU:0", "attr": {"dtype": {"type": "DT_INT32"}, "value": {"tensor": {"dtype": "DT_INT32", "tensorShape": {}}}}}, {"name": "resnet_model/conv2d_32/SelfAttention_1/Reshape/shape/2", "op": "Const", "device": "/device:GPU:0", "attr": {"dtype": {"type": "DT_INT32"}, "value": {"tensor": {"dtype": "DT_INT32", "tensorShape": {}}}}}, {"name": "resnet_model/conv2d_32/SelfAttention_1/Reshape/shape/3", "op": "Const", "device": "/device:GPU:0", "attr": {"value": {"tensor": {"dtype": "DT_INT32", "tensorShape": {}}}, "dtype": {"type": "DT_INT32"}}}, {"name": "resnet_model/conv2d_32/SelfAttention_1/Reshape/shape/4", "op": "Const", "device": "/device:GPU:0", "attr": {"dtype": {"type": "DT_INT32"}, "value": {"tensor": {"dtype": "DT_INT32", "tensorShape": {}}}}}, {"name": "resnet_model/conv2d_32/SelfAttention_1/Reshape/shape/5", "op": "Const", "device": "/device:GPU:0", "attr": {"dtype": {"type": "DT_INT32"}, "value": {"tensor": {"dtype": "DT_INT32", "tensorShape": {}}}}}, {"name": "resnet_model/conv2d_32/SelfAttention_1/BroadcastTo/shape/1", "op": "Const", "device": "/device:GPU:0", "attr": {"value": {"tensor": {"dtype": "DT_INT32", "tensorShape": {}}}, "dtype": {"type": "DT_INT32"}}}, {"name": "resnet_model/conv2d_32/SelfAttention_1/BroadcastTo/shape/2", "op": "Const", "device": "/device:GPU:0", "attr": {"value": {"tensor": {"dtype": "DT_INT32", "tensorShape": {}}}, "dtype": {"type": "DT_INT32"}}}, {"name": "resnet_model/conv2d_32/SelfAttention_1/BroadcastTo/shape/3", "op": "Const", "device": "/device:GPU:0", "attr": {"dtype": {"type": "DT_INT32"}, "value": {"tensor": {"dtype": "DT_INT32", "tensorShape": {}}}}}, {"name": "resnet_model/conv2d_32/SelfAttention_1/BroadcastTo/shape/4", "op": "Const", "device": "/device:GPU:0", "attr": {"dtype": {"type": "DT_INT32"}, "value": {"tensor": {"dtype": "DT_INT32", "tensorShape": {}}}}}, {"name": "resnet_model/conv2d_32/SelfAttention_1/BroadcastTo/shape/5", "op": "Const", "device": "/device:GPU:0", "attr": {"value": {"tensor": {"dtype": "DT_INT32", "tensorShape": {}}}, "dtype": {"type": "DT_INT32"}}}, {"name": "resnet_model/conv2d_31/SelfAttention_1/Reshape/shape/1", "op": "Const", "device": "/device:GPU:0", "attr": {"value": {"tensor": {"dtype": "DT_INT32", "tensorShape": {}}}, "dtype": {"type": "DT_INT32"}}}, {"name": "resnet_model/conv2d_31/SelfAttention_1/Reshape/shape/2", "op": "Const", "device": "/device:GPU:0", "attr": {"dtype": {"type": "DT_INT32"}, "value": {"tensor": {"dtype": "DT_INT32", "tensorShape": {}}}}}, {"name": "resnet_model/conv2d_31/SelfAttention_1/Reshape/shape/3", "op": "Const", "device": "/device:GPU:0", "attr": {"dtype": {"type": "DT_INT32"}, "value": {"tensor": {"dtype": "DT_INT32", "tensorShape": {}}}}}, {"name": "resnet_model/conv2d_31/SelfAttention_1/Reshape/shape/4", "op": "Const", "device": "/device:GPU:0", "attr": {"value": {"tensor": {"dtype": "DT_INT32", "tensorShape": {}}}, "dtype": {"type": "DT_INT32"}}}, {"name": "resnet_model/conv2d_31/SelfAttention_1/Reshape/shape/5", "op": "Const", "device": "/device:GPU:0", "attr": {"value": {"tensor": {"dtype": "DT_INT32", "tensorShape": {}}}, "dtype": {"type": "DT_INT32"}}}, {"name": "resnet_model/conv2d_31/SelfAttention_1/BroadcastTo/shape/1", "op": "Const", "device": "/device:GPU:0", "attr": {"dtype": {"type": "DT_INT32"}, "value": {"tensor": {"dtype": "DT_INT32", "tensorShape": {}}}}}, {"name": "resnet_model/conv2d_31/SelfAttention_1/BroadcastTo/shape/2", "op": "Const", "device": "/device:GPU:0", "attr": {"value": {"tensor": {"dtype": "DT_INT32", "tensorShape": {}}}, "dtype": {"type": "DT_INT32"}}}, {"name": "resnet_model/conv2d_31/SelfAttention_1/BroadcastTo/shape/3", "op": "Const", "device": "/device:GPU:0", "attr": {"value": {"tensor": {"dtype": "DT_INT32", "tensorShape": {}}}, "dtype": {"type": "DT_INT32"}}}, {"name": "resnet_model/conv2d_31/SelfAttention_1/BroadcastTo/shape/4", "op": "Const", "device": "/device:GPU:0", "attr": {"value": {"tensor": {"dtype": "DT_INT32", "tensorShape": {}}}, "dtype": {"type": "DT_INT32"}}}, {"name": "resnet_model/conv2d_31/SelfAttention_1/BroadcastTo/shape/5", "op": "Const", "device": "/device:GPU:0", "attr": {"dtype": {"type": "DT_INT32"}, "value": {"tensor": {"dtype": "DT_INT32", "tensorShape": {}}}}}, {"name": "resnet_model/batch_normalization_27/gamma", "op": "Const", "attr": {"dtype": {"type": "DT_FLOAT"}, "value": {"tensor": {"dtype": "DT_FLOAT", "tensorShape": {"dim": [{"size": "528"}]}}}}}, {"name": "resnet_model/batch_normalization_27/beta", "op": "Const", "attr": {"dtype": {"type": "DT_FLOAT"}, "value": {"tensor": {"dtype": "DT_FLOAT", "tensorShape": {"dim": [{"size": "528"}]}}}}}, {"name": "resnet_model/batch_normalization_27/moving_mean", "op": "Const", "attr": {"dtype": {"type": "DT_FLOAT"}, "value": {"tensor": {"dtype": "DT_FLOAT", "tensorShape": {"dim": [{"size": "528"}]}}}}}, {"name": "resnet_model/batch_normalization_27/moving_variance", "op": "Const", "attr": {"value": {"tensor": {"dtype": "DT_FLOAT", "tensorShape": {"dim": [{"size": "528"}]}}}, "dtype": {"type": "DT_FLOAT"}}}, {"name": "resnet_model/conv2d_31/SelfAttention_1/Variable", "op": "Const", "attr": {"dtype": {"type": "DT_FLOAT"}, "value": {"tensor": {"dtype": "DT_FLOAT", "tensorShape": {"dim": [{"size": "1"}, {"size": "1"}, {"size": "528"}, {"size": "164"}]}}}}}, {"name": "resnet_model/conv2d_31/SelfAttention_1/strided_slice/stack", "op": "Const", "device": "/device:GPU:0", "attr": {"value": {"tensor": {"dtype": "DT_INT32", "tensorShape": {"dim": [{"size": "1"}]}}}, "dtype": {"type": "DT_INT32"}}}, {"name": "resnet_model/conv2d_31/SelfAttention_1/strided_slice/stack_1", "op": "Const", "device": "/device:GPU:0", "attr": {"value": {"tensor": {"dtype": "DT_INT32", "tensorShape": {"dim": [{"size": "1"}]}}}, "dtype": {"type": "DT_INT32"}}}, {"name": "resnet_model/conv2d_31/SelfAttention_1/strided_slice/stack_2", "op": "Const", "device": "/device:GPU:0", "attr": {"value": {"tensor": {"dtype": "DT_INT32", "tensorShape": {"dim": [{"size": "1"}]}}}, "dtype": {"type": "DT_INT32"}}}, {"name": "resnet_model/conv2d_31/SelfAttention_1/Reshape_1/shape/1", "op": "Const", "device": "/device:GPU:0", "attr": {"value": {"tensor": {"dtype": "DT_INT32", "tensorShape": {}}}, "dtype": {"type": "DT_INT32"}}}, {"name": "resnet_model/conv2d_31/SelfAttention_1/Reshape_1/shape/2", "op": "Const", "device": "/device:GPU:0", "attr": {"dtype": {"type": "DT_INT32"}, "value": {"tensor": {"dtype": "DT_INT32", "tensorShape": {}}}}}, {"name": "resnet_model/conv2d_31/SelfAttention_1/Reshape_1/shape/3", "op": "Const", "device": "/device:GPU:0", "attr": {"dtype": {"type": "DT_INT32"}, "value": {"tensor": {"dtype": "DT_INT32", "tensorShape": {}}}}}, {"name": "resnet_model/batch_normalization_28/gamma", "op": "Const", "attr": {"dtype": {"type": "DT_FLOAT"}, "value": {"tensor": {"dtype": "DT_FLOAT", "tensorShape": {"dim": [{"size": "164"}]}}}}}, {"name": "resnet_model/batch_normalization_28/beta", "op": "Const", "attr": {"dtype": {"type": "DT_FLOAT"}, "value": {"tensor": {"dtype": "DT_FLOAT", "tensorShape": {"dim": [{"size": "164"}]}}}}}, {"name": "resnet_model/batch_normalization_28/moving_mean", "op": "Const", "attr": {"value": {"tensor": {"dtype": "DT_FLOAT", "tensorShape": {"dim": [{"size": "164"}]}}}, "dtype": {"type": "DT_FLOAT"}}}, {"name": "resnet_model/batch_normalization_28/moving_variance", "op": "Const", "attr": {"value": {"tensor": {"dtype": "DT_FLOAT", "tensorShape": {"dim": [{"size": "164"}]}}}, "dtype": {"type": "DT_FLOAT"}}}, {"name": "resnet_model/conv2d_32/SelfAttention_1/EConv2D_1/Variable", "op": "Const", "attr": {"value": {"tensor": {"dtype": "DT_FLOAT", "tensorShape": {"dim": [{"size": "3"}, {"size": "3"}, {"size": "164"}, {"size": "2"}]}}}, "dtype": {"type": "DT_FLOAT"}}}, {"name": "resnet_model/conv2d_32/SelfAttention_1/EConv2D_1/Variable_1", "op": "Const", "attr": {"value": {"tensor": {"dtype": "DT_FLOAT", "tensorShape": {"dim": [{"size": "1"}, {"size": "1"}, {"size": "328"}, {"size": "172"}]}}}, "dtype": {"type": "DT_FLOAT"}}}, {"name": "resnet_model/conv2d_32/SelfAttention_1/strided_slice/stack", "op": "Const", "device": "/device:GPU:0", "attr": {"value": {"tensor": {"dtype": "DT_INT32", "tensorShape": {"dim": [{"size": "1"}]}}}, "dtype": {"type": "DT_INT32"}}}, {"name": "resnet_model/conv2d_32/SelfAttention_1/strided_slice/stack_1", "op": "Const", "device": "/device:GPU:0", "attr": {"dtype": {"type": "DT_INT32"}, "value": {"tensor": {"dtype": "DT_INT32", "tensorShape": {"dim": [{"size": "1"}]}}}}}, {"name": "resnet_model/conv2d_32/SelfAttention_1/strided_slice/stack_2", "op": "Const", "device": "/device:GPU:0", "attr": {"dtype": {"type": "DT_INT32"}, "value": {"tensor": {"dtype": "DT_INT32", "tensorShape": {"dim": [{"size": "1"}]}}}}}, {"name": "resnet_model/conv2d_32/SelfAttention_1/Reshape_1/shape/1", "op": "Const", "device": "/device:GPU:0", "attr": {"value": {"tensor": {"dtype": "DT_INT32", "tensorShape": {}}}, "dtype": {"type": "DT_INT32"}}}, {"name": "resnet_model/conv2d_32/SelfAttention_1/Reshape_1/shape/2", "op": "Const", "device": "/device:GPU:0", "attr": {"value": {"tensor": {"dtype": "DT_INT32", "tensorShape": {}}}, "dtype": {"type": "DT_INT32"}}}, {"name": "resnet_model/conv2d_32/SelfAttention_1/Reshape_1/shape/3", "op": "Const", "device": "/device:GPU:0", "attr": {"value": {"tensor": {"dtype": "DT_INT32", "tensorShape": {}}}, "dtype": {"type": "DT_INT32"}}}, {"name": "resnet_model/batch_normalization_29/gamma", "op": "Const", "attr": {"value": {"tensor": {"dtype": "DT_FLOAT", "tensorShape": {"dim": [{"size": "172"}]}}}, "dtype": {"type": "DT_FLOAT"}}}, {"name": "resnet_model/batch_normalization_29/beta", "op": "Const", "attr": {"dtype": {"type": "DT_FLOAT"}, "value": {"tensor": {"dtype": "DT_FLOAT", "tensorShape": {"dim": [{"size": "172"}]}}}}}, {"name": "resnet_model/batch_normalization_29/moving_mean", "op": "Const", "attr": {"value": {"tensor": {"dtype": "DT_FLOAT", "tensorShape": {"dim": [{"size": "172"}]}}}, "dtype": {"type": "DT_FLOAT"}}}, {"name": "resnet_model/batch_normalization_29/moving_variance", "op": "Const", "attr": {"value": {"tensor": {"dtype": "DT_FLOAT", "tensorShape": {"dim": [{"size": "172"}]}}}, "dtype": {"type": "DT_FLOAT"}}}, {"name": "resnet_model/conv2d_33/SelfAttention_1/Variable", "op": "Const", "attr": {"dtype": {"type": "DT_FLOAT"}, "value": {"tensor": {"dtype": "DT_FLOAT", "tensorShape": {"dim": [{"size": "1"}, {"size": "1"}, {"size": "172"}, {"size": "528"}]}}}}}, {"name": "resnet_model/conv2d_33/SelfAttention_1/strided_slice/stack", "op": "Const", "device": "/device:GPU:0", "attr": {"value": {"tensor": {"dtype": "DT_INT32", "tensorShape": {"dim": [{"size": "1"}]}}}, "dtype": {"type": "DT_INT32"}}}, {"name": "resnet_model/conv2d_33/SelfAttention_1/strided_slice/stack_1", "op": "Const", "device": "/device:GPU:0", "attr": {"value": {"tensor": {"dtype": "DT_INT32", "tensorShape": {"dim": [{"size": "1"}]}}}, "dtype": {"type": "DT_INT32"}}}, {"name": "resnet_model/conv2d_33/SelfAttention_1/strided_slice/stack_2", "op": "Const", "device": "/device:GPU:0", "attr": {"value": {"tensor": {"dtype": "DT_INT32", "tensorShape": {"dim": [{"size": "1"}]}}}, "dtype": {"type": "DT_INT32"}}}, {"name": "resnet_model/conv2d_33/SelfAttention_1/Reshape_1/shape/1", "op": "Const", "device": "/device:GPU:0", "attr": {"value": {"tensor": {"dtype": "DT_INT32", "tensorShape": {}}}, "dtype": {"type": "DT_INT32"}}}, {"name": "resnet_model/conv2d_33/SelfAttention_1/Reshape_1/shape/2", "op": "Const", "device": "/device:GPU:0", "attr": {"value": {"tensor": {"dtype": "DT_INT32", "tensorShape": {}}}, "dtype": {"type": "DT_INT32"}}}, {"name": "resnet_model/conv2d_33/SelfAttention_1/Reshape_1/shape/3", "op": "Const", "device": "/device:GPU:0", "attr": {"value": {"tensor": {"dtype": "DT_INT32", "tensorShape": {}}}, "dtype": {"type": "DT_INT32"}}}, {"name": "resnet_model/conv2d_30/SelfAttention_1/Reshape/shape/1", "op": "Const", "device": "/device:GPU:0", "attr": {"dtype": {"type": "DT_INT32"}, "value": {"tensor": {"dtype": "DT_INT32", "tensorShape": {}}}}}, {"name": "resnet_model/conv2d_30/SelfAttention_1/Reshape/shape/2", "op": "Const", "device": "/device:GPU:0", "attr": {"dtype": {"type": "DT_INT32"}, "value": {"tensor": {"dtype": "DT_INT32", "tensorShape": {}}}}}, {"name": "resnet_model/conv2d_30/SelfAttention_1/Reshape/shape/3", "op": "Const", "device": "/device:GPU:0", "attr": {"value": {"tensor": {"dtype": "DT_INT32", "tensorShape": {}}}, "dtype": {"type": "DT_INT32"}}}, {"name": "resnet_model/conv2d_30/SelfAttention_1/Reshape/shape/4", "op": "Const", "device": "/device:GPU:0", "attr": {"value": {"tensor": {"dtype": "DT_INT32", "tensorShape": {}}}, "dtype": {"type": "DT_INT32"}}}, {"name": "resnet_model/conv2d_30/SelfAttention_1/Reshape/shape/5", "op": "Const", "device": "/device:GPU:0", "attr": {"dtype": {"type": "DT_INT32"}, "value": {"tensor": {"dtype": "DT_INT32", "tensorShape": {}}}}}, {"name": "resnet_model/conv2d_30/SelfAttention_1/BroadcastTo/shape/1", "op": "Const", "device": "/device:GPU:0", "attr": {"value": {"tensor": {"dtype": "DT_INT32", "tensorShape": {}}}, "dtype": {"type": "DT_INT32"}}}, {"name": "resnet_model/conv2d_30/SelfAttention_1/BroadcastTo/shape/2", "op": "Const", "device": "/device:GPU:0", "attr": {"value": {"tensor": {"dtype": "DT_INT32", "tensorShape": {}}}, "dtype": {"type": "DT_INT32"}}}, {"name": "resnet_model/conv2d_30/SelfAttention_1/BroadcastTo/shape/3", "op": "Const", "device": "/device:GPU:0", "attr": {"dtype": {"type": "DT_INT32"}, "value": {"tensor": {"dtype": "DT_INT32", "tensorShape": {}}}}}, {"name": "resnet_model/conv2d_30/SelfAttention_1/BroadcastTo/shape/4", "op": "Const", "device": "/device:GPU:0", "attr": {"dtype": {"type": "DT_INT32"}, "value": {"tensor": {"dtype": "DT_INT32", "tensorShape": {}}}}}, {"name": "resnet_model/conv2d_30/SelfAttention_1/BroadcastTo/shape/5", "op": "Const", "device": "/device:GPU:0", "attr": {"dtype": {"type": "DT_INT32"}, "value": {"tensor": {"dtype": "DT_INT32", "tensorShape": {}}}}}, {"name": "resnet_model/conv2d_29/SelfAttention_1/Reshape/shape/1", "op": "Const", "device": "/device:GPU:0", "attr": {"value": {"tensor": {"dtype": "DT_INT32", "tensorShape": {}}}, "dtype": {"type": "DT_INT32"}}}, {"name": "resnet_model/conv2d_29/SelfAttention_1/Reshape/shape/2", "op": "Const", "device": "/device:GPU:0", "attr": {"value": {"tensor": {"dtype": "DT_INT32", "tensorShape": {}}}, "dtype": {"type": "DT_INT32"}}}, {"name": "resnet_model/conv2d_29/SelfAttention_1/Reshape/shape/3", "op": "Const", "device": "/device:GPU:0", "attr": {"value": {"tensor": {"dtype": "DT_INT32", "tensorShape": {}}}, "dtype": {"type": "DT_INT32"}}}, {"name": "resnet_model/conv2d_29/SelfAttention_1/Reshape/shape/4", "op": "Const", "device": "/device:GPU:0", "attr": {"value": {"tensor": {"dtype": "DT_INT32", "tensorShape": {}}}, "dtype": {"type": "DT_INT32"}}}, {"name": "resnet_model/conv2d_29/SelfAttention_1/Reshape/shape/5", "op": "Const", "device": "/device:GPU:0", "attr": {"value": {"tensor": {"dtype": "DT_INT32", "tensorShape": {}}}, "dtype": {"type": "DT_INT32"}}}, {"name": "resnet_model/conv2d_29/SelfAttention_1/BroadcastTo/shape/1", "op": "Const", "device": "/device:GPU:0", "attr": {"value": {"tensor": {"dtype": "DT_INT32", "tensorShape": {}}}, "dtype": {"type": "DT_INT32"}}}, {"name": "resnet_model/conv2d_29/SelfAttention_1/BroadcastTo/shape/2", "op": "Const", "device": "/device:GPU:0", "attr": {"dtype": {"type": "DT_INT32"}, "value": {"tensor": {"dtype": "DT_INT32", "tensorShape": {}}}}}, {"name": "resnet_model/conv2d_29/SelfAttention_1/BroadcastTo/shape/3", "op": "Const", "device": "/device:GPU:0", "attr": {"value": {"tensor": {"dtype": "DT_INT32", "tensorShape": {}}}, "dtype": {"type": "DT_INT32"}}}, {"name": "resnet_model/conv2d_29/SelfAttention_1/BroadcastTo/shape/4", "op": "Const", "device": "/device:GPU:0", "attr": {"dtype": {"type": "DT_INT32"}, "value": {"tensor": {"dtype": "DT_INT32", "tensorShape": {}}}}}, {"name": "resnet_model/conv2d_29/SelfAttention_1/BroadcastTo/shape/5", "op": "Const", "device": "/device:GPU:0", "attr": {"value": {"tensor": {"dtype": "DT_INT32", "tensorShape": {}}}, "dtype": {"type": "DT_INT32"}}}, {"name": "resnet_model/conv2d_28/SelfAttention_1/Reshape/shape/1", "op": "Const", "device": "/device:GPU:0", "attr": {"value": {"tensor": {"dtype": "DT_INT32", "tensorShape": {}}}, "dtype": {"type": "DT_INT32"}}}, {"name": "resnet_model/conv2d_28/SelfAttention_1/Reshape/shape/2", "op": "Const", "device": "/device:GPU:0", "attr": {"value": {"tensor": {"dtype": "DT_INT32", "tensorShape": {}}}, "dtype": {"type": "DT_INT32"}}}, {"name": "resnet_model/conv2d_28/SelfAttention_1/Reshape/shape/3", "op": "Const", "device": "/device:GPU:0", "attr": {"value": {"tensor": {"dtype": "DT_INT32", "tensorShape": {}}}, "dtype": {"type": "DT_INT32"}}}, {"name": "resnet_model/conv2d_28/SelfAttention_1/Reshape/shape/4", "op": "Const", "device": "/device:GPU:0", "attr": {"value": {"tensor": {"dtype": "DT_INT32", "tensorShape": {}}}, "dtype": {"type": "DT_INT32"}}}, {"name": "resnet_model/conv2d_28/SelfAttention_1/Reshape/shape/5", "op": "Const", "device": "/device:GPU:0", "attr": {"dtype": {"type": "DT_INT32"}, "value": {"tensor": {"dtype": "DT_INT32", "tensorShape": {}}}}}, {"name": "resnet_model/conv2d_28/SelfAttention_1/BroadcastTo/shape/1", "op": "Const", "device": "/device:GPU:0", "attr": {"dtype": {"type": "DT_INT32"}, "value": {"tensor": {"dtype": "DT_INT32", "tensorShape": {}}}}}, {"name": "resnet_model/conv2d_28/SelfAttention_1/BroadcastTo/shape/2", "op": "Const", "device": "/device:GPU:0", "attr": {"value": {"tensor": {"dtype": "DT_INT32", "tensorShape": {}}}, "dtype": {"type": "DT_INT32"}}}, {"name": "resnet_model/conv2d_28/SelfAttention_1/BroadcastTo/shape/3", "op": "Const", "device": "/device:GPU:0", "attr": {"dtype": {"type": "DT_INT32"}, "value": {"tensor": {"dtype": "DT_INT32", "tensorShape": {}}}}}, {"name": "resnet_model/conv2d_28/SelfAttention_1/BroadcastTo/shape/4", "op": "Const", "device": "/device:GPU:0", "attr": {"dtype": {"type": "DT_INT32"}, "value": {"tensor": {"dtype": "DT_INT32", "tensorShape": {}}}}}, {"name": "resnet_model/conv2d_28/SelfAttention_1/BroadcastTo/shape/5", "op": "Const", "device": "/device:GPU:0", "attr": {"dtype": {"type": "DT_INT32"}, "value": {"tensor": {"dtype": "DT_INT32", "tensorShape": {}}}}}, {"name": "resnet_model/batch_normalization_24/gamma", "op": "Const", "attr": {"dtype": {"type": "DT_FLOAT"}, "value": {"tensor": {"dtype": "DT_FLOAT", "tensorShape": {"dim": [{"size": "528"}]}}}}}, {"name": "resnet_model/batch_normalization_24/beta", "op": "Const", "attr": {"dtype": {"type": "DT_FLOAT"}, "value": {"tensor": {"dtype": "DT_FLOAT", "tensorShape": {"dim": [{"size": "528"}]}}}}}, {"name": "resnet_model/batch_normalization_24/moving_mean", "op": "Const", "attr": {"dtype": {"type": "DT_FLOAT"}, "value": {"tensor": {"dtype": "DT_FLOAT", "tensorShape": {"dim": [{"size": "528"}]}}}}}, {"name": "resnet_model/batch_normalization_24/moving_variance", "op": "Const", "attr": {"value": {"tensor": {"dtype": "DT_FLOAT", "tensorShape": {"dim": [{"size": "528"}]}}}, "dtype": {"type": "DT_FLOAT"}}}, {"name": "resnet_model/conv2d_28/SelfAttention_1/Variable", "op": "Const", "attr": {"dtype": {"type": "DT_FLOAT"}, "value": {"tensor": {"dtype": "DT_FLOAT", "tensorShape": {"dim": [{"size": "1"}, {"size": "1"}, {"size": "528"}, {"size": "160"}]}}}}}, {"name": "resnet_model/conv2d_28/SelfAttention_1/strided_slice/stack", "op": "Const", "device": "/device:GPU:0", "attr": {"value": {"tensor": {"dtype": "DT_INT32", "tensorShape": {"dim": [{"size": "1"}]}}}, "dtype": {"type": "DT_INT32"}}}, {"name": "resnet_model/conv2d_28/SelfAttention_1/strided_slice/stack_1", "op": "Const", "device": "/device:GPU:0", "attr": {"dtype": {"type": "DT_INT32"}, "value": {"tensor": {"dtype": "DT_INT32", "tensorShape": {"dim": [{"size": "1"}]}}}}}, {"name": "resnet_model/conv2d_28/SelfAttention_1/strided_slice/stack_2", "op": "Const", "device": "/device:GPU:0", "attr": {"value": {"tensor": {"dtype": "DT_INT32", "tensorShape": {"dim": [{"size": "1"}]}}}, "dtype": {"type": "DT_INT32"}}}, {"name": "resnet_model/conv2d_28/SelfAttention_1/Reshape_1/shape/1", "op": "Const", "device": "/device:GPU:0", "attr": {"dtype": {"type": "DT_INT32"}, "value": {"tensor": {"dtype": "DT_INT32", "tensorShape": {}}}}}, {"name": "resnet_model/conv2d_28/SelfAttention_1/Reshape_1/shape/2", "op": "Const", "device": "/device:GPU:0", "attr": {"dtype": {"type": "DT_INT32"}, "value": {"tensor": {"dtype": "DT_INT32", "tensorShape": {}}}}}, {"name": "resnet_model/conv2d_28/SelfAttention_1/Reshape_1/shape/3", "op": "Const", "device": "/device:GPU:0", "attr": {"value": {"tensor": {"dtype": "DT_INT32", "tensorShape": {}}}, "dtype": {"type": "DT_INT32"}}}, {"name": "resnet_model/batch_normalization_25/gamma", "op": "Const", "attr": {"dtype": {"type": "DT_FLOAT"}, "value": {"tensor": {"dtype": "DT_FLOAT", "tensorShape": {"dim": [{"size": "160"}]}}}}}, {"name": "resnet_model/batch_normalization_25/beta", "op": "Const", "attr": {"dtype": {"type": "DT_FLOAT"}, "value": {"tensor": {"dtype": "DT_FLOAT", "tensorShape": {"dim": [{"size": "160"}]}}}}}, {"name": "resnet_model/batch_normalization_25/moving_mean", "op": "Const", "attr": {"dtype": {"type": "DT_FLOAT"}, "value": {"tensor": {"dtype": "DT_FLOAT", "tensorShape": {"dim": [{"size": "160"}]}}}}}, {"name": "resnet_model/batch_normalization_25/moving_variance", "op": "Const", "attr": {"value": {"tensor": {"dtype": "DT_FLOAT", "tensorShape": {"dim": [{"size": "160"}]}}}, "dtype": {"type": "DT_FLOAT"}}}, {"name": "resnet_model/conv2d_29/SelfAttention_1/EConv2D_1/Variable", "op": "Const", "attr": {"dtype": {"type": "DT_FLOAT"}, "value": {"tensor": {"dtype": "DT_FLOAT", "tensorShape": {"dim": [{"size": "3"}, {"size": "3"}, {"size": "160"}, {"size": "2"}]}}}}}, {"name": "resnet_model/conv2d_29/SelfAttention_1/EConv2D_1/Variable_1", "op": "Const", "attr": {"value": {"tensor": {"dtype": "DT_FLOAT", "tensorShape": {"dim": [{"size": "1"}, {"size": "1"}, {"size": "320"}, {"size": "168"}]}}}, "dtype": {"type": "DT_FLOAT"}}}, {"name": "resnet_model/conv2d_29/SelfAttention_1/strided_slice/stack", "op": "Const", "device": "/device:GPU:0", "attr": {"dtype": {"type": "DT_INT32"}, "value": {"tensor": {"dtype": "DT_INT32", "tensorShape": {"dim": [{"size": "1"}]}}}}}, {"name": "resnet_model/conv2d_29/SelfAttention_1/strided_slice/stack_1", "op": "Const", "device": "/device:GPU:0", "attr": {"dtype": {"type": "DT_INT32"}, "value": {"tensor": {"dtype": "DT_INT32", "tensorShape": {"dim": [{"size": "1"}]}}}}}, {"name": "resnet_model/conv2d_29/SelfAttention_1/strided_slice/stack_2", "op": "Const", "device": "/device:GPU:0", "attr": {"dtype": {"type": "DT_INT32"}, "value": {"tensor": {"dtype": "DT_INT32", "tensorShape": {"dim": [{"size": "1"}]}}}}}, {"name": "resnet_model/conv2d_29/SelfAttention_1/Reshape_1/shape/1", "op": "Const", "device": "/device:GPU:0", "attr": {"dtype": {"type": "DT_INT32"}, "value": {"tensor": {"dtype": "DT_INT32", "tensorShape": {}}}}}, {"name": "resnet_model/conv2d_29/SelfAttention_1/Reshape_1/shape/2", "op": "Const", "device": "/device:GPU:0", "attr": {"dtype": {"type": "DT_INT32"}, "value": {"tensor": {"dtype": "DT_INT32", "tensorShape": {}}}}}, {"name": "resnet_model/conv2d_29/SelfAttention_1/Reshape_1/shape/3", "op": "Const", "device": "/device:GPU:0", "attr": {"value": {"tensor": {"dtype": "DT_INT32", "tensorShape": {}}}, "dtype": {"type": "DT_INT32"}}}, {"name": "resnet_model/batch_normalization_26/gamma", "op": "Const", "attr": {"dtype": {"type": "DT_FLOAT"}, "value": {"tensor": {"dtype": "DT_FLOAT", "tensorShape": {"dim": [{"size": "168"}]}}}}}, {"name": "resnet_model/batch_normalization_26/beta", "op": "Const", "attr": {"value": {"tensor": {"dtype": "DT_FLOAT", "tensorShape": {"dim": [{"size": "168"}]}}}, "dtype": {"type": "DT_FLOAT"}}}, {"name": "resnet_model/batch_normalization_26/moving_mean", "op": "Const", "attr": {"dtype": {"type": "DT_FLOAT"}, "value": {"tensor": {"dtype": "DT_FLOAT", "tensorShape": {"dim": [{"size": "168"}]}}}}}, {"name": "resnet_model/batch_normalization_26/moving_variance", "op": "Const", "attr": {"dtype": {"type": "DT_FLOAT"}, "value": {"tensor": {"dtype": "DT_FLOAT", "tensorShape": {"dim": [{"size": "168"}]}}}}}, {"name": "resnet_model/conv2d_30/SelfAttention_1/Variable", "op": "Const", "attr": {"dtype": {"type": "DT_FLOAT"}, "value": {"tensor": {"dtype": "DT_FLOAT", "tensorShape": {"dim": [{"size": "1"}, {"size": "1"}, {"size": "168"}, {"size": "528"}]}}}}}, {"name": "resnet_model/conv2d_30/SelfAttention_1/strided_slice/stack", "op": "Const", "device": "/device:GPU:0", "attr": {"dtype": {"type": "DT_INT32"}, "value": {"tensor": {"dtype": "DT_INT32", "tensorShape": {"dim": [{"size": "1"}]}}}}}, {"name": "resnet_model/conv2d_30/SelfAttention_1/strided_slice/stack_1", "op": "Const", "device": "/device:GPU:0", "attr": {"dtype": {"type": "DT_INT32"}, "value": {"tensor": {"dtype": "DT_INT32", "tensorShape": {"dim": [{"size": "1"}]}}}}}, {"name": "resnet_model/conv2d_30/SelfAttention_1/strided_slice/stack_2", "op": "Const", "device": "/device:GPU:0", "attr": {"dtype": {"type": "DT_INT32"}, "value": {"tensor": {"dtype": "DT_INT32", "tensorShape": {"dim": [{"size": "1"}]}}}}}, {"name": "resnet_model/conv2d_30/SelfAttention_1/Reshape_1/shape/1", "op": "Const", "device": "/device:GPU:0", "attr": {"value": {"tensor": {"dtype": "DT_INT32", "tensorShape": {}}}, "dtype": {"type": "DT_INT32"}}}, {"name": "resnet_model/conv2d_30/SelfAttention_1/Reshape_1/shape/2", "op": "Const", "device": "/device:GPU:0", "attr": {"value": {"tensor": {"dtype": "DT_INT32", "tensorShape": {}}}, "dtype": {"type": "DT_INT32"}}}, {"name": "resnet_model/conv2d_30/SelfAttention_1/Reshape_1/shape/3", "op": "Const", "device": "/device:GPU:0", "attr": {"dtype": {"type": "DT_INT32"}, "value": {"tensor": {"dtype": "DT_INT32", "tensorShape": {}}}}}, {"name": "resnet_model/conv2d_27/SelfAttention_1/Reshape/shape/1", "op": "Const", "device": "/device:GPU:0", "attr": {"dtype": {"type": "DT_INT32"}, "value": {"tensor": {"dtype": "DT_INT32", "tensorShape": {}}}}}, {"name": "resnet_model/conv2d_27/SelfAttention_1/Reshape/shape/2", "op": "Const", "device": "/device:GPU:0", "attr": {"value": {"tensor": {"dtype": "DT_INT32", "tensorShape": {}}}, "dtype": {"type": "DT_INT32"}}}, {"name": "resnet_model/conv2d_27/SelfAttention_1/Reshape/shape/3", "op": "Const", "device": "/device:GPU:0", "attr": {"value": {"tensor": {"dtype": "DT_INT32", "tensorShape": {}}}, "dtype": {"type": "DT_INT32"}}}, {"name": "resnet_model/conv2d_27/SelfAttention_1/Reshape/shape/4", "op": "Const", "device": "/device:GPU:0", "attr": {"dtype": {"type": "DT_INT32"}, "value": {"tensor": {"dtype": "DT_INT32", "tensorShape": {}}}}}, {"name": "resnet_model/conv2d_27/SelfAttention_1/Reshape/shape/5", "op": "Const", "device": "/device:GPU:0", "attr": {"dtype": {"type": "DT_INT32"}, "value": {"tensor": {"dtype": "DT_INT32", "tensorShape": {}}}}}, {"name": "resnet_model/conv2d_27/SelfAttention_1/BroadcastTo/shape/1", "op": "Const", "device": "/device:GPU:0", "attr": {"dtype": {"type": "DT_INT32"}, "value": {"tensor": {"dtype": "DT_INT32", "tensorShape": {}}}}}, {"name": "resnet_model/conv2d_27/SelfAttention_1/BroadcastTo/shape/2", "op": "Const", "device": "/device:GPU:0", "attr": {"dtype": {"type": "DT_INT32"}, "value": {"tensor": {"dtype": "DT_INT32", "tensorShape": {}}}}}, {"name": "resnet_model/conv2d_27/SelfAttention_1/BroadcastTo/shape/3", "op": "Const", "device": "/device:GPU:0", "attr": {"dtype": {"type": "DT_INT32"}, "value": {"tensor": {"dtype": "DT_INT32", "tensorShape": {}}}}}, {"name": "resnet_model/conv2d_27/SelfAttention_1/BroadcastTo/shape/4", "op": "Const", "device": "/device:GPU:0", "attr": {"dtype": {"type": "DT_INT32"}, "value": {"tensor": {"dtype": "DT_INT32", "tensorShape": {}}}}}, {"name": "resnet_model/conv2d_27/SelfAttention_1/BroadcastTo/shape/5", "op": "Const", "device": "/device:GPU:0", "attr": {"value": {"tensor": {"dtype": "DT_INT32", "tensorShape": {}}}, "dtype": {"type": "DT_INT32"}}}, {"name": "resnet_model/conv2d_25/SelfAttention_1/Reshape/shape/1", "op": "Const", "device": "/device:GPU:0", "attr": {"dtype": {"type": "DT_INT32"}, "value": {"tensor": {"dtype": "DT_INT32", "tensorShape": {}}}}}, {"name": "resnet_model/conv2d_25/SelfAttention_1/Reshape/shape/2", "op": "Const", "device": "/device:GPU:0", "attr": {"dtype": {"type": "DT_INT32"}, "value": {"tensor": {"dtype": "DT_INT32", "tensorShape": {}}}}}, {"name": "resnet_model/conv2d_25/SelfAttention_1/Reshape/shape/3", "op": "Const", "device": "/device:GPU:0", "attr": {"dtype": {"type": "DT_INT32"}, "value": {"tensor": {"dtype": "DT_INT32", "tensorShape": {}}}}}, {"name": "resnet_model/conv2d_25/SelfAttention_1/Reshape/shape/4", "op": "Const", "device": "/device:GPU:0", "attr": {"value": {"tensor": {"dtype": "DT_INT32", "tensorShape": {}}}, "dtype": {"type": "DT_INT32"}}}, {"name": "resnet_model/conv2d_25/SelfAttention_1/Reshape/shape/5", "op": "Const", "device": "/device:GPU:0", "attr": {"value": {"tensor": {"dtype": "DT_INT32", "tensorShape": {}}}, "dtype": {"type": "DT_INT32"}}}, {"name": "resnet_model/conv2d_25/SelfAttention_1/BroadcastTo/shape/1", "op": "Const", "device": "/device:GPU:0", "attr": {"value": {"tensor": {"dtype": "DT_INT32", "tensorShape": {}}}, "dtype": {"type": "DT_INT32"}}}, {"name": "resnet_model/conv2d_25/SelfAttention_1/BroadcastTo/shape/2", "op": "Const", "device": "/device:GPU:0", "attr": {"dtype": {"type": "DT_INT32"}, "value": {"tensor": {"dtype": "DT_INT32", "tensorShape": {}}}}}, {"name": "resnet_model/conv2d_25/SelfAttention_1/BroadcastTo/shape/3", "op": "Const", "device": "/device:GPU:0", "attr": {"dtype": {"type": "DT_INT32"}, "value": {"tensor": {"dtype": "DT_INT32", "tensorShape": {}}}}}, {"name": "resnet_model/conv2d_25/SelfAttention_1/BroadcastTo/shape/4", "op": "Const", "device": "/device:GPU:0", "attr": {"value": {"tensor": {"dtype": "DT_INT32", "tensorShape": {}}}, "dtype": {"type": "DT_INT32"}}}, {"name": "resnet_model/conv2d_25/SelfAttention_1/BroadcastTo/shape/5", "op": "Const", "device": "/device:GPU:0", "attr": {"value": {"tensor": {"dtype": "DT_INT32", "tensorShape": {}}}, "dtype": {"type": "DT_INT32"}}}, {"name": "resnet_model/conv2d_25/SelfAttention_1/Variable", "op": "Const", "attr": {"dtype": {"type": "DT_FLOAT"}, "value": {"tensor": {"dtype": "DT_FLOAT", "tensorShape": {"dim": [{"size": "1"}, {"size": "1"}, {"size": "292"}, {"size": "172"}]}}}}}, {"name": "resnet_model/conv2d_25/SelfAttention_1/strided_slice/stack", "op": "Const", "device": "/device:GPU:0", "attr": {"dtype": {"type": "DT_INT32"}, "value": {"tensor": {"dtype": "DT_INT32", "tensorShape": {"dim": [{"size": "1"}]}}}}}, {"name": "resnet_model/conv2d_25/SelfAttention_1/strided_slice/stack_1", "op": "Const", "device": "/device:GPU:0", "attr": {"dtype": {"type": "DT_INT32"}, "value": {"tensor": {"dtype": "DT_INT32", "tensorShape": {"dim": [{"size": "1"}]}}}}}, {"name": "resnet_model/conv2d_25/SelfAttention_1/strided_slice/stack_2", "op": "Const", "device": "/device:GPU:0", "attr": {"dtype": {"type": "DT_INT32"}, "value": {"tensor": {"dtype": "DT_INT32", "tensorShape": {"dim": [{"size": "1"}]}}}}}, {"name": "resnet_model/conv2d_25/SelfAttention_1/Reshape_1/shape/1", "op": "Const", "device": "/device:GPU:0", "attr": {"value": {"tensor": {"dtype": "DT_INT32", "tensorShape": {}}}, "dtype": {"type": "DT_INT32"}}}, {"name": "resnet_model/conv2d_25/SelfAttention_1/Reshape_1/shape/2", "op": "Const", "device": "/device:GPU:0", "attr": {"value": {"tensor": {"dtype": "DT_INT32", "tensorShape": {}}}, "dtype": {"type": "DT_INT32"}}}, {"name": "resnet_model/conv2d_25/SelfAttention_1/Reshape_1/shape/3", "op": "Const", "device": "/device:GPU:0", "attr": {"dtype": {"type": "DT_INT32"}, "value": {"tensor": {"dtype": "DT_INT32", "tensorShape": {}}}}}, {"name": "resnet_model/batch_normalization_22/gamma", "op": "Const", "attr": {"dtype": {"type": "DT_FLOAT"}, "value": {"tensor": {"dtype": "DT_FLOAT", "tensorShape": {"dim": [{"size": "172"}]}}}}}, {"name": "resnet_model/batch_normalization_22/beta", "op": "Const", "attr": {"value": {"tensor": {"dtype": "DT_FLOAT", "tensorShape": {"dim": [{"size": "172"}]}}}, "dtype": {"type": "DT_FLOAT"}}}, {"name": "resnet_model/batch_normalization_22/moving_mean", "op": "Const", "attr": {"dtype": {"type": "DT_FLOAT"}, "value": {"tensor": {"dtype": "DT_FLOAT", "tensorShape": {"dim": [{"size": "172"}]}}}}}, {"name": "resnet_model/batch_normalization_22/moving_variance", "op": "Const", "attr": {"dtype": {"type": "DT_FLOAT"}, "value": {"tensor": {"dtype": "DT_FLOAT", "tensorShape": {"dim": [{"size": "172"}]}}}}}, {"name": "resnet_model/Pad_4/paddings", "op": "Const", "device": "/device:GPU:0", "attr": {"value": {"tensor": {"dtype": "DT_INT32", "tensorShape": {"dim": [{"size": "4"}, {"size": "2"}]}}}, "dtype": {"type": "DT_INT32"}}}, {"name": "resnet_model/conv2d_26/EConv2D_1/Variable", "op": "Const", "attr": {"value": {"tensor": {"dtype": "DT_FLOAT", "tensorShape": {"dim": [{"size": "3"}, {"size": "3"}, {"size": "172"}, {"size": "2"}]}}}, "dtype": {"type": "DT_FLOAT"}}}, {"name": "resnet_model/conv2d_27/SelfAttention_1/Variable", "op": "Const", "attr": {"value": {"tensor": {"dtype": "DT_FLOAT", "tensorShape": {"dim": [{"size": "1"}, {"size": "1"}, {"size": "164"}, {"size": "528"}]}}}, "dtype": {"type": "DT_FLOAT"}}}, {"name": "resnet_model/conv2d_27/SelfAttention_1/strided_slice/stack", "op": "Const", "device": "/device:GPU:0", "attr": {"value": {"tensor": {"dtype": "DT_INT32", "tensorShape": {"dim": [{"size": "1"}]}}}, "dtype": {"type": "DT_INT32"}}}, {"name": "resnet_model/conv2d_27/SelfAttention_1/strided_slice/stack_1", "op": "Const", "device": "/device:GPU:0", "attr": {"dtype": {"type": "DT_INT32"}, "value": {"tensor": {"dtype": "DT_INT32", "tensorShape": {"dim": [{"size": "1"}]}}}}}, {"name": "resnet_model/conv2d_27/SelfAttention_1/strided_slice/stack_2", "op": "Const", "device": "/device:GPU:0", "attr": {"dtype": {"type": "DT_INT32"}, "value": {"tensor": {"dtype": "DT_INT32", "tensorShape": {"dim": [{"size": "1"}]}}}}}, {"name": "resnet_model/conv2d_27/SelfAttention_1/Reshape_1/shape/1", "op": "Const", "device": "/device:GPU:0", "attr": {"dtype": {"type": "DT_INT32"}, "value": {"tensor": {"dtype": "DT_INT32", "tensorShape": {}}}}}, {"name": "resnet_model/conv2d_27/SelfAttention_1/Reshape_1/shape/2", "op": "Const", "device": "/device:GPU:0", "attr": {"value": {"tensor": {"dtype": "DT_INT32", "tensorShape": {}}}, "dtype": {"type": "DT_INT32"}}}, {"name": "resnet_model/conv2d_27/SelfAttention_1/Reshape_1/shape/3", "op": "Const", "device": "/device:GPU:0", "attr": {"value": {"tensor": {"dtype": "DT_INT32", "tensorShape": {}}}, "dtype": {"type": "DT_INT32"}}}, {"name": "resnet_model/conv2d_24/SelfAttention_1/Reshape/shape/1", "op": "Const", "device": "/device:GPU:0", "attr": {"dtype": {"type": "DT_INT32"}, "value": {"tensor": {"dtype": "DT_INT32", "tensorShape": {}}}}}, {"name": "resnet_model/conv2d_24/SelfAttention_1/Reshape/shape/2", "op": "Const", "device": "/device:GPU:0", "attr": {"dtype": {"type": "DT_INT32"}, "value": {"tensor": {"dtype": "DT_INT32", "tensorShape": {}}}}}, {"name": "resnet_model/conv2d_24/SelfAttention_1/Reshape/shape/3", "op": "Const", "device": "/device:GPU:0", "attr": {"value": {"tensor": {"dtype": "DT_INT32", "tensorShape": {}}}, "dtype": {"type": "DT_INT32"}}}, {"name": "resnet_model/conv2d_24/SelfAttention_1/Reshape/shape/4", "op": "Const", "device": "/device:GPU:0", "attr": {"dtype": {"type": "DT_INT32"}, "value": {"tensor": {"dtype": "DT_INT32", "tensorShape": {}}}}}, {"name": "resnet_model/conv2d_24/SelfAttention_1/Reshape/shape/5", "op": "Const", "device": "/device:GPU:0", "attr": {"value": {"tensor": {"dtype": "DT_INT32", "tensorShape": {}}}, "dtype": {"type": "DT_INT32"}}}, {"name": "resnet_model/conv2d_24/SelfAttention_1/BroadcastTo/shape/1", "op": "Const", "device": "/device:GPU:0", "attr": {"value": {"tensor": {"dtype": "DT_INT32", "tensorShape": {}}}, "dtype": {"type": "DT_INT32"}}}, {"name": "resnet_model/conv2d_24/SelfAttention_1/BroadcastTo/shape/2", "op": "Const", "device": "/device:GPU:0", "attr": {"dtype": {"type": "DT_INT32"}, "value": {"tensor": {"dtype": "DT_INT32", "tensorShape": {}}}}}, {"name": "resnet_model/conv2d_24/SelfAttention_1/BroadcastTo/shape/3", "op": "Const", "device": "/device:GPU:0", "attr": {"dtype": {"type": "DT_INT32"}, "value": {"tensor": {"dtype": "DT_INT32", "tensorShape": {}}}}}, {"name": "resnet_model/conv2d_24/SelfAttention_1/BroadcastTo/shape/4", "op": "Const", "device": "/device:GPU:0", "attr": {"value": {"tensor": {"dtype": "DT_INT32", "tensorShape": {}}}, "dtype": {"type": "DT_INT32"}}}, {"name": "resnet_model/conv2d_24/SelfAttention_1/BroadcastTo/shape/5", "op": "Const", "device": "/device:GPU:0", "attr": {"dtype": {"type": "DT_INT32"}, "value": {"tensor": {"dtype": "DT_INT32", "tensorShape": {}}}}}, {"name": "resnet_model/conv2d_23/SelfAttention_1/Reshape/shape/1", "op": "Const", "device": "/device:GPU:0", "attr": {"dtype": {"type": "DT_INT32"}, "value": {"tensor": {"dtype": "DT_INT32", "tensorShape": {}}}}}, {"name": "resnet_model/conv2d_23/SelfAttention_1/Reshape/shape/2", "op": "Const", "device": "/device:GPU:0", "attr": {"dtype": {"type": "DT_INT32"}, "value": {"tensor": {"dtype": "DT_INT32", "tensorShape": {}}}}}, {"name": "resnet_model/conv2d_23/SelfAttention_1/Reshape/shape/3", "op": "Const", "device": "/device:GPU:0", "attr": {"value": {"tensor": {"dtype": "DT_INT32", "tensorShape": {}}}, "dtype": {"type": "DT_INT32"}}}, {"name": "resnet_model/conv2d_23/SelfAttention_1/Reshape/shape/4", "op": "Const", "device": "/device:GPU:0", "attr": {"dtype": {"type": "DT_INT32"}, "value": {"tensor": {"dtype": "DT_INT32", "tensorShape": {}}}}}, {"name": "resnet_model/conv2d_23/SelfAttention_1/Reshape/shape/5", "op": "Const", "device": "/device:GPU:0", "attr": {"dtype": {"type": "DT_INT32"}, "value": {"tensor": {"dtype": "DT_INT32", "tensorShape": {}}}}}, {"name": "resnet_model/conv2d_23/SelfAttention_1/BroadcastTo/shape/1", "op": "Const", "device": "/device:GPU:0", "attr": {"value": {"tensor": {"dtype": "DT_INT32", "tensorShape": {}}}, "dtype": {"type": "DT_INT32"}}}, {"name": "resnet_model/conv2d_23/SelfAttention_1/BroadcastTo/shape/2", "op": "Const", "device": "/device:GPU:0", "attr": {"dtype": {"type": "DT_INT32"}, "value": {"tensor": {"dtype": "DT_INT32", "tensorShape": {}}}}}, {"name": "resnet_model/conv2d_23/SelfAttention_1/BroadcastTo/shape/3", "op": "Const", "device": "/device:GPU:0", "attr": {"dtype": {"type": "DT_INT32"}, "value": {"tensor": {"dtype": "DT_INT32", "tensorShape": {}}}}}, {"name": "resnet_model/conv2d_23/SelfAttention_1/BroadcastTo/shape/4", "op": "Const", "device": "/device:GPU:0", "attr": {"dtype": {"type": "DT_INT32"}, "value": {"tensor": {"dtype": "DT_INT32", "tensorShape": {}}}}}, {"name": "resnet_model/conv2d_23/SelfAttention_1/BroadcastTo/shape/5", "op": "Const", "device": "/device:GPU:0", "attr": {"dtype": {"type": "DT_INT32"}, "value": {"tensor": {"dtype": "DT_INT32", "tensorShape": {}}}}}, {"name": "resnet_model/conv2d_22/SelfAttention_1/Reshape/shape/1", "op": "Const", "device": "/device:GPU:0", "attr": {"dtype": {"type": "DT_INT32"}, "value": {"tensor": {"dtype": "DT_INT32", "tensorShape": {}}}}}, {"name": "resnet_model/conv2d_22/SelfAttention_1/Reshape/shape/2", "op": "Const", "device": "/device:GPU:0", "attr": {"dtype": {"type": "DT_INT32"}, "value": {"tensor": {"dtype": "DT_INT32", "tensorShape": {}}}}}, {"name": "resnet_model/conv2d_22/SelfAttention_1/Reshape/shape/3", "op": "Const", "device": "/device:GPU:0", "attr": {"dtype": {"type": "DT_INT32"}, "value": {"tensor": {"dtype": "DT_INT32", "tensorShape": {}}}}}, {"name": "resnet_model/conv2d_22/SelfAttention_1/Reshape/shape/4", "op": "Const", "device": "/device:GPU:0", "attr": {"dtype": {"type": "DT_INT32"}, "value": {"tensor": {"dtype": "DT_INT32", "tensorShape": {}}}}}, {"name": "resnet_model/conv2d_22/SelfAttention_1/Reshape/shape/5", "op": "Const", "device": "/device:GPU:0", "attr": {"dtype": {"type": "DT_INT32"}, "value": {"tensor": {"dtype": "DT_INT32", "tensorShape": {}}}}}, {"name": "resnet_model/conv2d_22/SelfAttention_1/BroadcastTo/shape/1", "op": "Const", "device": "/device:GPU:0", "attr": {"dtype": {"type": "DT_INT32"}, "value": {"tensor": {"dtype": "DT_INT32", "tensorShape": {}}}}}, {"name": "resnet_model/conv2d_22/SelfAttention_1/BroadcastTo/shape/2", "op": "Const", "device": "/device:GPU:0", "attr": {"dtype": {"type": "DT_INT32"}, "value": {"tensor": {"dtype": "DT_INT32", "tensorShape": {}}}}}, {"name": "resnet_model/conv2d_22/SelfAttention_1/BroadcastTo/shape/3", "op": "Const", "device": "/device:GPU:0", "attr": {"value": {"tensor": {"dtype": "DT_INT32", "tensorShape": {}}}, "dtype": {"type": "DT_INT32"}}}, {"name": "resnet_model/conv2d_22/SelfAttention_1/BroadcastTo/shape/4", "op": "Const", "device": "/device:GPU:0", "attr": {"value": {"tensor": {"dtype": "DT_INT32", "tensorShape": {}}}, "dtype": {"type": "DT_INT32"}}}, {"name": "resnet_model/conv2d_22/SelfAttention_1/BroadcastTo/shape/5", "op": "Const", "device": "/device:GPU:0", "attr": {"dtype": {"type": "DT_INT32"}, "value": {"tensor": {"dtype": "DT_INT32", "tensorShape": {}}}}}, {"name": "resnet_model/conv2d_21/SelfAttention_1/Reshape/shape/1", "op": "Const", "device": "/device:GPU:0", "attr": {"dtype": {"type": "DT_INT32"}, "value": {"tensor": {"dtype": "DT_INT32", "tensorShape": {}}}}}, {"name": "resnet_model/conv2d_21/SelfAttention_1/Reshape/shape/2", "op": "Const", "device": "/device:GPU:0", "attr": {"value": {"tensor": {"dtype": "DT_INT32", "tensorShape": {}}}, "dtype": {"type": "DT_INT32"}}}, {"name": "resnet_model/conv2d_21/SelfAttention_1/Reshape/shape/3", "op": "Const", "device": "/device:GPU:0", "attr": {"dtype": {"type": "DT_INT32"}, "value": {"tensor": {"dtype": "DT_INT32", "tensorShape": {}}}}}, {"name": "resnet_model/conv2d_21/SelfAttention_1/Reshape/shape/4", "op": "Const", "device": "/device:GPU:0", "attr": {"value": {"tensor": {"dtype": "DT_INT32", "tensorShape": {}}}, "dtype": {"type": "DT_INT32"}}}, {"name": "resnet_model/conv2d_21/SelfAttention_1/Reshape/shape/5", "op": "Const", "device": "/device:GPU:0", "attr": {"dtype": {"type": "DT_INT32"}, "value": {"tensor": {"dtype": "DT_INT32", "tensorShape": {}}}}}, {"name": "resnet_model/conv2d_21/SelfAttention_1/BroadcastTo/shape/1", "op": "Const", "device": "/device:GPU:0", "attr": {"value": {"tensor": {"dtype": "DT_INT32", "tensorShape": {}}}, "dtype": {"type": "DT_INT32"}}}, {"name": "resnet_model/conv2d_21/SelfAttention_1/BroadcastTo/shape/2", "op": "Const", "device": "/device:GPU:0", "attr": {"dtype": {"type": "DT_INT32"}, "value": {"tensor": {"dtype": "DT_INT32", "tensorShape": {}}}}}, {"name": "resnet_model/conv2d_21/SelfAttention_1/BroadcastTo/shape/3", "op": "Const", "device": "/device:GPU:0", "attr": {"dtype": {"type": "DT_INT32"}, "value": {"tensor": {"dtype": "DT_INT32", "tensorShape": {}}}}}, {"name": "resnet_model/conv2d_21/SelfAttention_1/BroadcastTo/shape/4", "op": "Const", "device": "/device:GPU:0", "attr": {"dtype": {"type": "DT_INT32"}, "value": {"tensor": {"dtype": "DT_INT32", "tensorShape": {}}}}}, {"name": "resnet_model/conv2d_21/SelfAttention_1/BroadcastTo/shape/5", "op": "Const", "device": "/device:GPU:0", "attr": {"dtype": {"type": "DT_INT32"}, "value": {"tensor": {"dtype": "DT_INT32", "tensorShape": {}}}}}, {"name": "resnet_model/batch_normalization_18/gamma", "op": "Const", "attr": {"value": {"tensor": {"dtype": "DT_FLOAT", "tensorShape": {"dim": [{"size": "292"}]}}}, "dtype": {"type": "DT_FLOAT"}}}, {"name": "resnet_model/batch_normalization_18/beta", "op": "Const", "attr": {"dtype": {"type": "DT_FLOAT"}, "value": {"tensor": {"dtype": "DT_FLOAT", "tensorShape": {"dim": [{"size": "292"}]}}}}}, {"name": "resnet_model/batch_normalization_18/moving_mean", "op": "Const", "attr": {"dtype": {"type": "DT_FLOAT"}, "value": {"tensor": {"dtype": "DT_FLOAT", "tensorShape": {"dim": [{"size": "292"}]}}}}}, {"name": "resnet_model/batch_normalization_18/moving_variance", "op": "Const", "attr": {"value": {"tensor": {"dtype": "DT_FLOAT", "tensorShape": {"dim": [{"size": "292"}]}}}, "dtype": {"type": "DT_FLOAT"}}}, {"name": "resnet_model/conv2d_21/SelfAttention_1/Variable", "op": "Const", "attr": {"dtype": {"type": "DT_FLOAT"}, "value": {"tensor": {"dtype": "DT_FLOAT", "tensorShape": {"dim": [{"size": "1"}, {"size": "1"}, {"size": "292"}, {"size": "88"}]}}}}}, {"name": "resnet_model/conv2d_21/SelfAttention_1/strided_slice/stack", "op": "Const", "device": "/device:GPU:0", "attr": {"value": {"tensor": {"dtype": "DT_INT32", "tensorShape": {"dim": [{"size": "1"}]}}}, "dtype": {"type": "DT_INT32"}}}, {"name": "resnet_model/conv2d_21/SelfAttention_1/strided_slice/stack_1", "op": "Const", "device": "/device:GPU:0", "attr": {"dtype": {"type": "DT_INT32"}, "value": {"tensor": {"dtype": "DT_INT32", "tensorShape": {"dim": [{"size": "1"}]}}}}}, {"name": "resnet_model/conv2d_21/SelfAttention_1/strided_slice/stack_2", "op": "Const", "device": "/device:GPU:0", "attr": {"dtype": {"type": "DT_INT32"}, "value": {"tensor": {"dtype": "DT_INT32", "tensorShape": {"dim": [{"size": "1"}]}}}}}, {"name": "resnet_model/conv2d_21/SelfAttention_1/Reshape_1/shape/1", "op": "Const", "device": "/device:GPU:0", "attr": {"dtype": {"type": "DT_INT32"}, "value": {"tensor": {"dtype": "DT_INT32", "tensorShape": {}}}}}, {"name": "resnet_model/conv2d_21/SelfAttention_1/Reshape_1/shape/2", "op": "Const", "device": "/device:GPU:0", "attr": {"value": {"tensor": {"dtype": "DT_INT32", "tensorShape": {}}}, "dtype": {"type": "DT_INT32"}}}, {"name": "resnet_model/conv2d_21/SelfAttention_1/Reshape_1/shape/3", "op": "Const", "device": "/device:GPU:0", "attr": {"value": {"tensor": {"dtype": "DT_INT32", "tensorShape": {}}}, "dtype": {"type": "DT_INT32"}}}, {"name": "resnet_model/batch_normalization_19/gamma", "op": "Const", "attr": {"dtype": {"type": "DT_FLOAT"}, "value": {"tensor": {"dtype": "DT_FLOAT", "tensorShape": {"dim": [{"size": "88"}]}}}}}, {"name": "resnet_model/batch_normalization_19/beta", "op": "Const", "attr": {"dtype": {"type": "DT_FLOAT"}, "value": {"tensor": {"dtype": "DT_FLOAT", "tensorShape": {"dim": [{"size": "88"}]}}}}}, {"name": "resnet_model/batch_normalization_19/moving_mean", "op": "Const", "attr": {"value": {"tensor": {"dtype": "DT_FLOAT", "tensorShape": {"dim": [{"size": "88"}]}}}, "dtype": {"type": "DT_FLOAT"}}}, {"name": "resnet_model/batch_normalization_19/moving_variance", "op": "Const", "attr": {"dtype": {"type": "DT_FLOAT"}, "value": {"tensor": {"dtype": "DT_FLOAT", "tensorShape": {"dim": [{"size": "88"}]}}}}}, {"name": "resnet_model/conv2d_22/SelfAttention_1/EConv2D_1/Variable", "op": "Const", "attr": {"dtype": {"type": "DT_FLOAT"}, "value": {"tensor": {"dtype": "DT_FLOAT", "tensorShape": {"dim": [{"size": "3"}, {"size": "3"}, {"size": "88"}, {"size": "2"}]}}}}}, {"name": "resnet_model/conv2d_22/SelfAttention_1/EConv2D_1/Variable_1", "op": "Const", "attr": {"dtype": {"type": "DT_FLOAT"}, "value": {"tensor": {"dtype": "DT_FLOAT", "tensorShape": {"dim": [{"size": "1"}, {"size": "1"}, {"size": "176"}, {"size": "92"}]}}}}}, {"name": "resnet_model/conv2d_22/SelfAttention_1/strided_slice/stack", "op": "Const", "device": "/device:GPU:0", "attr": {"dtype": {"type": "DT_INT32"}, "value": {"tensor": {"dtype": "DT_INT32", "tensorShape": {"dim": [{"size": "1"}]}}}}}, {"name": "resnet_model/conv2d_22/SelfAttention_1/strided_slice/stack_1", "op": "Const", "device": "/device:GPU:0", "attr": {"dtype": {"type": "DT_INT32"}, "value": {"tensor": {"dtype": "DT_INT32", "tensorShape": {"dim": [{"size": "1"}]}}}}}, {"name": "resnet_model/conv2d_22/SelfAttention_1/strided_slice/stack_2", "op": "Const", "device": "/device:GPU:0", "attr": {"dtype": {"type": "DT_INT32"}, "value": {"tensor": {"dtype": "DT_INT32", "tensorShape": {"dim": [{"size": "1"}]}}}}}, {"name": "resnet_model/conv2d_22/SelfAttention_1/Reshape_1/shape/1", "op": "Const", "device": "/device:GPU:0", "attr": {"value": {"tensor": {"dtype": "DT_INT32", "tensorShape": {}}}, "dtype": {"type": "DT_INT32"}}}, {"name": "resnet_model/conv2d_22/SelfAttention_1/Reshape_1/shape/2", "op": "Const", "device": "/device:GPU:0", "attr": {"dtype": {"type": "DT_INT32"}, "value": {"tensor": {"dtype": "DT_INT32", "tensorShape": {}}}}}, {"name": "resnet_model/conv2d_22/SelfAttention_1/Reshape_1/shape/3", "op": "Const", "device": "/device:GPU:0", "attr": {"dtype": {"type": "DT_INT32"}, "value": {"tensor": {"dtype": "DT_INT32", "tensorShape": {}}}}}, {"name": "resnet_model/batch_normalization_20/gamma", "op": "Const", "attr": {"value": {"tensor": {"dtype": "DT_FLOAT", "tensorShape": {"dim": [{"size": "92"}]}}}, "dtype": {"type": "DT_FLOAT"}}}, {"name": "resnet_model/batch_normalization_20/beta", "op": "Const", "attr": {"value": {"tensor": {"dtype": "DT_FLOAT", "tensorShape": {"dim": [{"size": "92"}]}}}, "dtype": {"type": "DT_FLOAT"}}}, {"name": "resnet_model/batch_normalization_20/moving_mean", "op": "Const", "attr": {"value": {"tensor": {"dtype": "DT_FLOAT", "tensorShape": {"dim": [{"size": "92"}]}}}, "dtype": {"type": "DT_FLOAT"}}}, {"name": "resnet_model/batch_normalization_20/moving_variance", "op": "Const", "attr": {"value": {"tensor": {"dtype": "DT_FLOAT", "tensorShape": {"dim": [{"size": "92"}]}}}, "dtype": {"type": "DT_FLOAT"}}}, {"name": "resnet_model/conv2d_23/SelfAttention_1/Variable", "op": "Const", "attr": {"dtype": {"type": "DT_FLOAT"}, "value": {"tensor": {"dtype": "DT_FLOAT", "tensorShape": {"dim": [{"size": "1"}, {"size": "1"}, {"size": "92"}, {"size": "292"}]}}}}}, {"name": "resnet_model/conv2d_23/SelfAttention_1/strided_slice/stack", "op": "Const", "device": "/device:GPU:0", "attr": {"dtype": {"type": "DT_INT32"}, "value": {"tensor": {"dtype": "DT_INT32", "tensorShape": {"dim": [{"size": "1"}]}}}}}, {"name": "resnet_model/conv2d_23/SelfAttention_1/strided_slice/stack_1", "op": "Const", "device": "/device:GPU:0", "attr": {"dtype": {"type": "DT_INT32"}, "value": {"tensor": {"dtype": "DT_INT32", "tensorShape": {"dim": [{"size": "1"}]}}}}}, {"name": "resnet_model/conv2d_23/SelfAttention_1/strided_slice/stack_2", "op": "Const", "device": "/device:GPU:0", "attr": {"value": {"tensor": {"dtype": "DT_INT32", "tensorShape": {"dim": [{"size": "1"}]}}}, "dtype": {"type": "DT_INT32"}}}, {"name": "resnet_model/conv2d_23/SelfAttention_1/Reshape_1/shape/1", "op": "Const", "device": "/device:GPU:0", "attr": {"value": {"tensor": {"dtype": "DT_INT32", "tensorShape": {}}}, "dtype": {"type": "DT_INT32"}}}, {"name": "resnet_model/conv2d_23/SelfAttention_1/Reshape_1/shape/2", "op": "Const", "device": "/device:GPU:0", "attr": {"value": {"tensor": {"dtype": "DT_INT32", "tensorShape": {}}}, "dtype": {"type": "DT_INT32"}}}, {"name": "resnet_model/conv2d_23/SelfAttention_1/Reshape_1/shape/3", "op": "Const", "device": "/device:GPU:0", "attr": {"value": {"tensor": {"dtype": "DT_INT32", "tensorShape": {}}}, "dtype": {"type": "DT_INT32"}}}, {"name": "resnet_model/conv2d_20/SelfAttention_1/Reshape/shape/1", "op": "Const", "device": "/device:GPU:0", "attr": {"value": {"tensor": {"dtype": "DT_INT32", "tensorShape": {}}}, "dtype": {"type": "DT_INT32"}}}, {"name": "resnet_model/conv2d_20/SelfAttention_1/Reshape/shape/2", "op": "Const", "device": "/device:GPU:0", "attr": {"value": {"tensor": {"dtype": "DT_INT32", "tensorShape": {}}}, "dtype": {"type": "DT_INT32"}}}, {"name": "resnet_model/conv2d_20/SelfAttention_1/Reshape/shape/3", "op": "Const", "device": "/device:GPU:0", "attr": {"value": {"tensor": {"dtype": "DT_INT32", "tensorShape": {}}}, "dtype": {"type": "DT_INT32"}}}, {"name": "resnet_model/conv2d_20/SelfAttention_1/Reshape/shape/4", "op": "Const", "device": "/device:GPU:0", "attr": {"dtype": {"type": "DT_INT32"}, "value": {"tensor": {"dtype": "DT_INT32", "tensorShape": {}}}}}, {"name": "resnet_model/conv2d_20/SelfAttention_1/Reshape/shape/5", "op": "Const", "device": "/device:GPU:0", "attr": {"value": {"tensor": {"dtype": "DT_INT32", "tensorShape": {}}}, "dtype": {"type": "DT_INT32"}}}, {"name": "resnet_model/conv2d_20/SelfAttention_1/BroadcastTo/shape/1", "op": "Const", "device": "/device:GPU:0", "attr": {"value": {"tensor": {"dtype": "DT_INT32", "tensorShape": {}}}, "dtype": {"type": "DT_INT32"}}}, {"name": "resnet_model/conv2d_20/SelfAttention_1/BroadcastTo/shape/2", "op": "Const", "device": "/device:GPU:0", "attr": {"dtype": {"type": "DT_INT32"}, "value": {"tensor": {"dtype": "DT_INT32", "tensorShape": {}}}}}, {"name": "resnet_model/conv2d_20/SelfAttention_1/BroadcastTo/shape/3", "op": "Const", "device": "/device:GPU:0", "attr": {"value": {"tensor": {"dtype": "DT_INT32", "tensorShape": {}}}, "dtype": {"type": "DT_INT32"}}}, {"name": "resnet_model/conv2d_20/SelfAttention_1/BroadcastTo/shape/4", "op": "Const", "device": "/device:GPU:0", "attr": {"dtype": {"type": "DT_INT32"}, "value": {"tensor": {"dtype": "DT_INT32", "tensorShape": {}}}}}, {"name": "resnet_model/conv2d_20/SelfAttention_1/BroadcastTo/shape/5", "op": "Const", "device": "/device:GPU:0", "attr": {"dtype": {"type": "DT_INT32"}, "value": {"tensor": {"dtype": "DT_INT32", "tensorShape": {}}}}}, {"name": "resnet_model/conv2d_19/SelfAttention_1/Reshape/shape/1", "op": "Const", "device": "/device:GPU:0", "attr": {"dtype": {"type": "DT_INT32"}, "value": {"tensor": {"dtype": "DT_INT32", "tensorShape": {}}}}}, {"name": "resnet_model/conv2d_19/SelfAttention_1/Reshape/shape/2", "op": "Const", "device": "/device:GPU:0", "attr": {"value": {"tensor": {"dtype": "DT_INT32", "tensorShape": {}}}, "dtype": {"type": "DT_INT32"}}}, {"name": "resnet_model/conv2d_19/SelfAttention_1/Reshape/shape/3", "op": "Const", "device": "/device:GPU:0", "attr": {"value": {"tensor": {"dtype": "DT_INT32", "tensorShape": {}}}, "dtype": {"type": "DT_INT32"}}}, {"name": "resnet_model/conv2d_19/SelfAttention_1/Reshape/shape/4", "op": "Const", "device": "/device:GPU:0", "attr": {"dtype": {"type": "DT_INT32"}, "value": {"tensor": {"dtype": "DT_INT32", "tensorShape": {}}}}}, {"name": "resnet_model/conv2d_19/SelfAttention_1/Reshape/shape/5", "op": "Const", "device": "/device:GPU:0", "attr": {"dtype": {"type": "DT_INT32"}, "value": {"tensor": {"dtype": "DT_INT32", "tensorShape": {}}}}}, {"name": "resnet_model/conv2d_19/SelfAttention_1/BroadcastTo/shape/1", "op": "Const", "device": "/device:GPU:0", "attr": {"value": {"tensor": {"dtype": "DT_INT32", "tensorShape": {}}}, "dtype": {"type": "DT_INT32"}}}, {"name": "resnet_model/conv2d_19/SelfAttention_1/BroadcastTo/shape/2", "op": "Const", "device": "/device:GPU:0", "attr": {"dtype": {"type": "DT_INT32"}, "value": {"tensor": {"dtype": "DT_INT32", "tensorShape": {}}}}}, {"name": "resnet_model/conv2d_19/SelfAttention_1/BroadcastTo/shape/3", "op": "Const", "device": "/device:GPU:0", "attr": {"value": {"tensor": {"dtype": "DT_INT32", "tensorShape": {}}}, "dtype": {"type": "DT_INT32"}}}, {"name": "resnet_model/conv2d_19/SelfAttention_1/BroadcastTo/shape/4", "op": "Const", "device": "/device:GPU:0", "attr": {"value": {"tensor": {"dtype": "DT_INT32", "tensorShape": {}}}, "dtype": {"type": "DT_INT32"}}}, {"name": "resnet_model/conv2d_19/SelfAttention_1/BroadcastTo/shape/5", "op": "Const", "device": "/device:GPU:0", "attr": {"value": {"tensor": {"dtype": "DT_INT32", "tensorShape": {}}}, "dtype": {"type": "DT_INT32"}}}, {"name": "resnet_model/conv2d_18/SelfAttention_1/Reshape/shape/1", "op": "Const", "device": "/device:GPU:0", "attr": {"dtype": {"type": "DT_INT32"}, "value": {"tensor": {"dtype": "DT_INT32", "tensorShape": {}}}}}, {"name": "resnet_model/conv2d_18/SelfAttention_1/Reshape/shape/2", "op": "Const", "device": "/device:GPU:0", "attr": {"dtype": {"type": "DT_INT32"}, "value": {"tensor": {"dtype": "DT_INT32", "tensorShape": {}}}}}, {"name": "resnet_model/conv2d_18/SelfAttention_1/Reshape/shape/3", "op": "Const", "device": "/device:GPU:0", "attr": {"dtype": {"type": "DT_INT32"}, "value": {"tensor": {"dtype": "DT_INT32", "tensorShape": {}}}}}, {"name": "resnet_model/conv2d_18/SelfAttention_1/Reshape/shape/4", "op": "Const", "device": "/device:GPU:0", "attr": {"dtype": {"type": "DT_INT32"}, "value": {"tensor": {"dtype": "DT_INT32", "tensorShape": {}}}}}, {"name": "resnet_model/conv2d_18/SelfAttention_1/Reshape/shape/5", "op": "Const", "device": "/device:GPU:0", "attr": {"dtype": {"type": "DT_INT32"}, "value": {"tensor": {"dtype": "DT_INT32", "tensorShape": {}}}}}, {"name": "resnet_model/conv2d_18/SelfAttention_1/BroadcastTo/shape/1", "op": "Const", "device": "/device:GPU:0", "attr": {"dtype": {"type": "DT_INT32"}, "value": {"tensor": {"dtype": "DT_INT32", "tensorShape": {}}}}}, {"name": "resnet_model/conv2d_18/SelfAttention_1/BroadcastTo/shape/2", "op": "Const", "device": "/device:GPU:0", "attr": {"value": {"tensor": {"dtype": "DT_INT32", "tensorShape": {}}}, "dtype": {"type": "DT_INT32"}}}, {"name": "resnet_model/conv2d_18/SelfAttention_1/BroadcastTo/shape/3", "op": "Const", "device": "/device:GPU:0", "attr": {"dtype": {"type": "DT_INT32"}, "value": {"tensor": {"dtype": "DT_INT32", "tensorShape": {}}}}}, {"name": "resnet_model/conv2d_18/SelfAttention_1/BroadcastTo/shape/4", "op": "Const", "device": "/device:GPU:0", "attr": {"dtype": {"type": "DT_INT32"}, "value": {"tensor": {"dtype": "DT_INT32", "tensorShape": {}}}}}, {"name": "resnet_model/conv2d_18/SelfAttention_1/BroadcastTo/shape/5", "op": "Const", "device": "/device:GPU:0", "attr": {"value": {"tensor": {"dtype": "DT_INT32", "tensorShape": {}}}, "dtype": {"type": "DT_INT32"}}}, {"name": "resnet_model/batch_normalization_15/gamma", "op": "Const", "attr": {"dtype": {"type": "DT_FLOAT"}, "value": {"tensor": {"dtype": "DT_FLOAT", "tensorShape": {"dim": [{"size": "292"}]}}}}}, {"name": "resnet_model/batch_normalization_15/beta", "op": "Const", "attr": {"dtype": {"type": "DT_FLOAT"}, "value": {"tensor": {"dtype": "DT_FLOAT", "tensorShape": {"dim": [{"size": "292"}]}}}}}, {"name": "resnet_model/batch_normalization_15/moving_mean", "op": "Const", "attr": {"dtype": {"type": "DT_FLOAT"}, "value": {"tensor": {"dtype": "DT_FLOAT", "tensorShape": {"dim": [{"size": "292"}]}}}}}, {"name": "resnet_model/batch_normalization_15/moving_variance", "op": "Const", "attr": {"dtype": {"type": "DT_FLOAT"}, "value": {"tensor": {"dtype": "DT_FLOAT", "tensorShape": {"dim": [{"size": "292"}]}}}}}, {"name": "resnet_model/conv2d_18/SelfAttention_1/Variable", "op": "Const", "attr": {"dtype": {"type": "DT_FLOAT"}, "value": {"tensor": {"dtype": "DT_FLOAT", "tensorShape": {"dim": [{"size": "1"}, {"size": "1"}, {"size": "292"}, {"size": "88"}]}}}}}, {"name": "resnet_model/conv2d_18/SelfAttention_1/strided_slice/stack", "op": "Const", "device": "/device:GPU:0", "attr": {"value": {"tensor": {"dtype": "DT_INT32", "tensorShape": {"dim": [{"size": "1"}]}}}, "dtype": {"type": "DT_INT32"}}}, {"name": "resnet_model/conv2d_18/SelfAttention_1/strided_slice/stack_1", "op": "Const", "device": "/device:GPU:0", "attr": {"value": {"tensor": {"dtype": "DT_INT32", "tensorShape": {"dim": [{"size": "1"}]}}}, "dtype": {"type": "DT_INT32"}}}, {"name": "resnet_model/conv2d_18/SelfAttention_1/strided_slice/stack_2", "op": "Const", "device": "/device:GPU:0", "attr": {"dtype": {"type": "DT_INT32"}, "value": {"tensor": {"dtype": "DT_INT32", "tensorShape": {"dim": [{"size": "1"}]}}}}}, {"name": "resnet_model/conv2d_18/SelfAttention_1/Reshape_1/shape/1", "op": "Const", "device": "/device:GPU:0", "attr": {"dtype": {"type": "DT_INT32"}, "value": {"tensor": {"dtype": "DT_INT32", "tensorShape": {}}}}}, {"name": "resnet_model/conv2d_18/SelfAttention_1/Reshape_1/shape/2", "op": "Const", "device": "/device:GPU:0", "attr": {"dtype": {"type": "DT_INT32"}, "value": {"tensor": {"dtype": "DT_INT32", "tensorShape": {}}}}}, {"name": "resnet_model/conv2d_18/SelfAttention_1/Reshape_1/shape/3", "op": "Const", "device": "/device:GPU:0", "attr": {"value": {"tensor": {"dtype": "DT_INT32", "tensorShape": {}}}, "dtype": {"type": "DT_INT32"}}}, {"name": "resnet_model/batch_normalization_16/gamma", "op": "Const", "attr": {"dtype": {"type": "DT_FLOAT"}, "value": {"tensor": {"dtype": "DT_FLOAT", "tensorShape": {"dim": [{"size": "88"}]}}}}}, {"name": "resnet_model/batch_normalization_16/beta", "op": "Const", "attr": {"value": {"tensor": {"dtype": "DT_FLOAT", "tensorShape": {"dim": [{"size": "88"}]}}}, "dtype": {"type": "DT_FLOAT"}}}, {"name": "resnet_model/batch_normalization_16/moving_mean", "op": "Const", "attr": {"dtype": {"type": "DT_FLOAT"}, "value": {"tensor": {"dtype": "DT_FLOAT", "tensorShape": {"dim": [{"size": "88"}]}}}}}, {"name": "resnet_model/batch_normalization_16/moving_variance", "op": "Const", "attr": {"value": {"tensor": {"dtype": "DT_FLOAT", "tensorShape": {"dim": [{"size": "88"}]}}}, "dtype": {"type": "DT_FLOAT"}}}, {"name": "resnet_model/conv2d_19/SelfAttention_1/EConv2D_1/Variable", "op": "Const", "attr": {"value": {"tensor": {"dtype": "DT_FLOAT", "tensorShape": {"dim": [{"size": "3"}, {"size": "3"}, {"size": "88"}, {"size": "2"}]}}}, "dtype": {"type": "DT_FLOAT"}}}, {"name": "resnet_model/conv2d_19/SelfAttention_1/EConv2D_1/Variable_1", "op": "Const", "attr": {"dtype": {"type": "DT_FLOAT"}, "value": {"tensor": {"dtype": "DT_FLOAT", "tensorShape": {"dim": [{"size": "1"}, {"size": "1"}, {"size": "176"}, {"size": "88"}]}}}}}, {"name": "resnet_model/conv2d_19/SelfAttention_1/strided_slice/stack", "op": "Const", "device": "/device:GPU:0", "attr": {"dtype": {"type": "DT_INT32"}, "value": {"tensor": {"dtype": "DT_INT32", "tensorShape": {"dim": [{"size": "1"}]}}}}}, {"name": "resnet_model/conv2d_19/SelfAttention_1/strided_slice/stack_1", "op": "Const", "device": "/device:GPU:0", "attr": {"dtype": {"type": "DT_INT32"}, "value": {"tensor": {"dtype": "DT_INT32", "tensorShape": {"dim": [{"size": "1"}]}}}}}, {"name": "resnet_model/conv2d_19/SelfAttention_1/strided_slice/stack_2", "op": "Const", "device": "/device:GPU:0", "attr": {"value": {"tensor": {"dtype": "DT_INT32", "tensorShape": {"dim": [{"size": "1"}]}}}, "dtype": {"type": "DT_INT32"}}}, {"name": "resnet_model/conv2d_19/SelfAttention_1/Reshape_1/shape/1", "op": "Const", "device": "/device:GPU:0", "attr": {"dtype": {"type": "DT_INT32"}, "value": {"tensor": {"dtype": "DT_INT32", "tensorShape": {}}}}}, {"name": "resnet_model/conv2d_19/SelfAttention_1/Reshape_1/shape/2", "op": "Const", "device": "/device:GPU:0", "attr": {"value": {"tensor": {"dtype": "DT_INT32", "tensorShape": {}}}, "dtype": {"type": "DT_INT32"}}}, {"name": "resnet_model/conv2d_19/SelfAttention_1/Reshape_1/shape/3", "op": "Const", "device": "/device:GPU:0", "attr": {"dtype": {"type": "DT_INT32"}, "value": {"tensor": {"dtype": "DT_INT32", "tensorShape": {}}}}}, {"name": "resnet_model/batch_normalization_17/gamma", "op": "Const", "attr": {"dtype": {"type": "DT_FLOAT"}, "value": {"tensor": {"dtype": "DT_FLOAT", "tensorShape": {"dim": [{"size": "88"}]}}}}}, {"name": "resnet_model/batch_normalization_17/beta", "op": "Const", "attr": {"dtype": {"type": "DT_FLOAT"}, "value": {"tensor": {"dtype": "DT_FLOAT", "tensorShape": {"dim": [{"size": "88"}]}}}}}, {"name": "resnet_model/batch_normalization_17/moving_mean", "op": "Const", "attr": {"dtype": {"type": "DT_FLOAT"}, "value": {"tensor": {"dtype": "DT_FLOAT", "tensorShape": {"dim": [{"size": "88"}]}}}}}, {"name": "resnet_model/batch_normalization_17/moving_variance", "op": "Const", "attr": {"dtype": {"type": "DT_FLOAT"}, "value": {"tensor": {"dtype": "DT_FLOAT", "tensorShape": {"dim": [{"size": "88"}]}}}}}, {"name": "resnet_model/conv2d_20/SelfAttention_1/Variable", "op": "Const", "attr": {"value": {"tensor": {"dtype": "DT_FLOAT", "tensorShape": {"dim": [{"size": "1"}, {"size": "1"}, {"size": "88"}, {"size": "292"}]}}}, "dtype": {"type": "DT_FLOAT"}}}, {"name": "resnet_model/conv2d_20/SelfAttention_1/strided_slice/stack", "op": "Const", "device": "/device:GPU:0", "attr": {"value": {"tensor": {"dtype": "DT_INT32", "tensorShape": {"dim": [{"size": "1"}]}}}, "dtype": {"type": "DT_INT32"}}}, {"name": "resnet_model/conv2d_20/SelfAttention_1/strided_slice/stack_1", "op": "Const", "device": "/device:GPU:0", "attr": {"dtype": {"type": "DT_INT32"}, "value": {"tensor": {"dtype": "DT_INT32", "tensorShape": {"dim": [{"size": "1"}]}}}}}, {"name": "resnet_model/conv2d_20/SelfAttention_1/strided_slice/stack_2", "op": "Const", "device": "/device:GPU:0", "attr": {"dtype": {"type": "DT_INT32"}, "value": {"tensor": {"dtype": "DT_INT32", "tensorShape": {"dim": [{"size": "1"}]}}}}}, {"name": "resnet_model/conv2d_20/SelfAttention_1/Reshape_1/shape/1", "op": "Const", "device": "/device:GPU:0", "attr": {"value": {"tensor": {"dtype": "DT_INT32", "tensorShape": {}}}, "dtype": {"type": "DT_INT32"}}}, {"name": "resnet_model/conv2d_20/SelfAttention_1/Reshape_1/shape/2", "op": "Const", "device": "/device:GPU:0", "attr": {"dtype": {"type": "DT_INT32"}, "value": {"tensor": {"dtype": "DT_INT32", "tensorShape": {}}}}}, {"name": "resnet_model/conv2d_20/SelfAttention_1/Reshape_1/shape/3", "op": "Const", "device": "/device:GPU:0", "attr": {"value": {"tensor": {"dtype": "DT_INT32", "tensorShape": {}}}, "dtype": {"type": "DT_INT32"}}}, {"name": "resnet_model/conv2d_17/SelfAttention_1/Reshape/shape/1", "op": "Const", "device": "/device:GPU:0", "attr": {"value": {"tensor": {"dtype": "DT_INT32", "tensorShape": {}}}, "dtype": {"type": "DT_INT32"}}}, {"name": "resnet_model/conv2d_17/SelfAttention_1/Reshape/shape/2", "op": "Const", "device": "/device:GPU:0", "attr": {"value": {"tensor": {"dtype": "DT_INT32", "tensorShape": {}}}, "dtype": {"type": "DT_INT32"}}}, {"name": "resnet_model/conv2d_17/SelfAttention_1/Reshape/shape/3", "op": "Const", "device": "/device:GPU:0", "attr": {"dtype": {"type": "DT_INT32"}, "value": {"tensor": {"dtype": "DT_INT32", "tensorShape": {}}}}}, {"name": "resnet_model/conv2d_17/SelfAttention_1/Reshape/shape/4", "op": "Const", "device": "/device:GPU:0", "attr": {"dtype": {"type": "DT_INT32"}, "value": {"tensor": {"dtype": "DT_INT32", "tensorShape": {}}}}}, {"name": "resnet_model/conv2d_17/SelfAttention_1/Reshape/shape/5", "op": "Const", "device": "/device:GPU:0", "attr": {"dtype": {"type": "DT_INT32"}, "value": {"tensor": {"dtype": "DT_INT32", "tensorShape": {}}}}}, {"name": "resnet_model/conv2d_17/SelfAttention_1/BroadcastTo/shape/1", "op": "Const", "device": "/device:GPU:0", "attr": {"dtype": {"type": "DT_INT32"}, "value": {"tensor": {"dtype": "DT_INT32", "tensorShape": {}}}}}, {"name": "resnet_model/conv2d_17/SelfAttention_1/BroadcastTo/shape/2", "op": "Const", "device": "/device:GPU:0", "attr": {"dtype": {"type": "DT_INT32"}, "value": {"tensor": {"dtype": "DT_INT32", "tensorShape": {}}}}}, {"name": "resnet_model/conv2d_17/SelfAttention_1/BroadcastTo/shape/3", "op": "Const", "device": "/device:GPU:0", "attr": {"dtype": {"type": "DT_INT32"}, "value": {"tensor": {"dtype": "DT_INT32", "tensorShape": {}}}}}, {"name": "resnet_model/conv2d_17/SelfAttention_1/BroadcastTo/shape/4", "op": "Const", "device": "/device:GPU:0", "attr": {"value": {"tensor": {"dtype": "DT_INT32", "tensorShape": {}}}, "dtype": {"type": "DT_INT32"}}}, {"name": "resnet_model/conv2d_17/SelfAttention_1/BroadcastTo/shape/5", "op": "Const", "device": "/device:GPU:0", "attr": {"value": {"tensor": {"dtype": "DT_INT32", "tensorShape": {}}}, "dtype": {"type": "DT_INT32"}}}, {"name": "resnet_model/conv2d_16/SelfAttention_1/Reshape/shape/1", "op": "Const", "device": "/device:GPU:0", "attr": {"dtype": {"type": "DT_INT32"}, "value": {"tensor": {"dtype": "DT_INT32", "tensorShape": {}}}}}, {"name": "resnet_model/conv2d_16/SelfAttention_1/Reshape/shape/2", "op": "Const", "device": "/device:GPU:0", "attr": {"value": {"tensor": {"dtype": "DT_INT32", "tensorShape": {}}}, "dtype": {"type": "DT_INT32"}}}, {"name": "resnet_model/conv2d_16/SelfAttention_1/Reshape/shape/3", "op": "Const", "device": "/device:GPU:0", "attr": {"dtype": {"type": "DT_INT32"}, "value": {"tensor": {"dtype": "DT_INT32", "tensorShape": {}}}}}, {"name": "resnet_model/conv2d_16/SelfAttention_1/Reshape/shape/4", "op": "Const", "device": "/device:GPU:0", "attr": {"dtype": {"type": "DT_INT32"}, "value": {"tensor": {"dtype": "DT_INT32", "tensorShape": {}}}}}, {"name": "resnet_model/conv2d_16/SelfAttention_1/Reshape/shape/5", "op": "Const", "device": "/device:GPU:0", "attr": {"dtype": {"type": "DT_INT32"}, "value": {"tensor": {"dtype": "DT_INT32", "tensorShape": {}}}}}, {"name": "resnet_model/conv2d_16/SelfAttention_1/BroadcastTo/shape/1", "op": "Const", "device": "/device:GPU:0", "attr": {"dtype": {"type": "DT_INT32"}, "value": {"tensor": {"dtype": "DT_INT32", "tensorShape": {}}}}}, {"name": "resnet_model/conv2d_16/SelfAttention_1/BroadcastTo/shape/2", "op": "Const", "device": "/device:GPU:0", "attr": {"dtype": {"type": "DT_INT32"}, "value": {"tensor": {"dtype": "DT_INT32", "tensorShape": {}}}}}, {"name": "resnet_model/conv2d_16/SelfAttention_1/BroadcastTo/shape/3", "op": "Const", "device": "/device:GPU:0", "attr": {"dtype": {"type": "DT_INT32"}, "value": {"tensor": {"dtype": "DT_INT32", "tensorShape": {}}}}}, {"name": "resnet_model/conv2d_16/SelfAttention_1/BroadcastTo/shape/4", "op": "Const", "device": "/device:GPU:0", "attr": {"value": {"tensor": {"dtype": "DT_INT32", "tensorShape": {}}}, "dtype": {"type": "DT_INT32"}}}, {"name": "resnet_model/conv2d_16/SelfAttention_1/BroadcastTo/shape/5", "op": "Const", "device": "/device:GPU:0", "attr": {"dtype": {"type": "DT_INT32"}, "value": {"tensor": {"dtype": "DT_INT32", "tensorShape": {}}}}}, {"name": "resnet_model/conv2d_15/SelfAttention_1/Reshape/shape/1", "op": "Const", "device": "/device:GPU:0", "attr": {"dtype": {"type": "DT_INT32"}, "value": {"tensor": {"dtype": "DT_INT32", "tensorShape": {}}}}}, {"name": "resnet_model/conv2d_15/SelfAttention_1/Reshape/shape/2", "op": "Const", "device": "/device:GPU:0", "attr": {"dtype": {"type": "DT_INT32"}, "value": {"tensor": {"dtype": "DT_INT32", "tensorShape": {}}}}}, {"name": "resnet_model/conv2d_15/SelfAttention_1/Reshape/shape/3", "op": "Const", "device": "/device:GPU:0", "attr": {"dtype": {"type": "DT_INT32"}, "value": {"tensor": {"dtype": "DT_INT32", "tensorShape": {}}}}}, {"name": "resnet_model/conv2d_15/SelfAttention_1/Reshape/shape/4", "op": "Const", "device": "/device:GPU:0", "attr": {"value": {"tensor": {"dtype": "DT_INT32", "tensorShape": {}}}, "dtype": {"type": "DT_INT32"}}}, {"name": "resnet_model/conv2d_15/SelfAttention_1/Reshape/shape/5", "op": "Const", "device": "/device:GPU:0", "attr": {"value": {"tensor": {"dtype": "DT_INT32", "tensorShape": {}}}, "dtype": {"type": "DT_INT32"}}}, {"name": "resnet_model/conv2d_15/SelfAttention_1/BroadcastTo/shape/1", "op": "Const", "device": "/device:GPU:0", "attr": {"value": {"tensor": {"dtype": "DT_INT32", "tensorShape": {}}}, "dtype": {"type": "DT_INT32"}}}, {"name": "resnet_model/conv2d_15/SelfAttention_1/BroadcastTo/shape/2", "op": "Const", "device": "/device:GPU:0", "attr": {"value": {"tensor": {"dtype": "DT_INT32", "tensorShape": {}}}, "dtype": {"type": "DT_INT32"}}}, {"name": "resnet_model/conv2d_15/SelfAttention_1/BroadcastTo/shape/3", "op": "Const", "device": "/device:GPU:0", "attr": {"value": {"tensor": {"dtype": "DT_INT32", "tensorShape": {}}}, "dtype": {"type": "DT_INT32"}}}, {"name": "resnet_model/conv2d_15/SelfAttention_1/BroadcastTo/shape/4", "op": "Const", "device": "/device:GPU:0", "attr": {"value": {"tensor": {"dtype": "DT_INT32", "tensorShape": {}}}, "dtype": {"type": "DT_INT32"}}}, {"name": "resnet_model/conv2d_15/SelfAttention_1/BroadcastTo/shape/5", "op": "Const", "device": "/device:GPU:0", "attr": {"value": {"tensor": {"dtype": "DT_INT32", "tensorShape": {}}}, "dtype": {"type": "DT_INT32"}}}, {"name": "resnet_model/batch_normalization_12/gamma", "op": "Const", "attr": {"dtype": {"type": "DT_FLOAT"}, "value": {"tensor": {"dtype": "DT_FLOAT", "tensorShape": {"dim": [{"size": "292"}]}}}}}, {"name": "resnet_model/batch_normalization_12/beta", "op": "Const", "attr": {"dtype": {"type": "DT_FLOAT"}, "value": {"tensor": {"dtype": "DT_FLOAT", "tensorShape": {"dim": [{"size": "292"}]}}}}}, {"name": "resnet_model/batch_normalization_12/moving_mean", "op": "Const", "attr": {"value": {"tensor": {"dtype": "DT_FLOAT", "tensorShape": {"dim": [{"size": "292"}]}}}, "dtype": {"type": "DT_FLOAT"}}}, {"name": "resnet_model/batch_normalization_12/moving_variance", "op": "Const", "attr": {"value": {"tensor": {"dtype": "DT_FLOAT", "tensorShape": {"dim": [{"size": "292"}]}}}, "dtype": {"type": "DT_FLOAT"}}}, {"name": "resnet_model/conv2d_15/SelfAttention_1/Variable", "op": "Const", "attr": {"value": {"tensor": {"dtype": "DT_FLOAT", "tensorShape": {"dim": [{"size": "1"}, {"size": "1"}, {"size": "292"}, {"size": "88"}]}}}, "dtype": {"type": "DT_FLOAT"}}}, {"name": "resnet_model/conv2d_15/SelfAttention_1/strided_slice/stack", "op": "Const", "device": "/device:GPU:0", "attr": {"value": {"tensor": {"dtype": "DT_INT32", "tensorShape": {"dim": [{"size": "1"}]}}}, "dtype": {"type": "DT_INT32"}}}, {"name": "resnet_model/conv2d_15/SelfAttention_1/strided_slice/stack_1", "op": "Const", "device": "/device:GPU:0", "attr": {"value": {"tensor": {"dtype": "DT_INT32", "tensorShape": {"dim": [{"size": "1"}]}}}, "dtype": {"type": "DT_INT32"}}}, {"name": "resnet_model/conv2d_15/SelfAttention_1/strided_slice/stack_2", "op": "Const", "device": "/device:GPU:0", "attr": {"dtype": {"type": "DT_INT32"}, "value": {"tensor": {"dtype": "DT_INT32", "tensorShape": {"dim": [{"size": "1"}]}}}}}, {"name": "resnet_model/conv2d_15/SelfAttention_1/Reshape_1/shape/1", "op": "Const", "device": "/device:GPU:0", "attr": {"value": {"tensor": {"dtype": "DT_INT32", "tensorShape": {}}}, "dtype": {"type": "DT_INT32"}}}, {"name": "resnet_model/conv2d_15/SelfAttention_1/Reshape_1/shape/2", "op": "Const", "device": "/device:GPU:0", "attr": {"dtype": {"type": "DT_INT32"}, "value": {"tensor": {"dtype": "DT_INT32", "tensorShape": {}}}}}, {"name": "resnet_model/conv2d_15/SelfAttention_1/Reshape_1/shape/3", "op": "Const", "device": "/device:GPU:0", "attr": {"dtype": {"type": "DT_INT32"}, "value": {"tensor": {"dtype": "DT_INT32", "tensorShape": {}}}}}, {"name": "resnet_model/batch_normalization_13/gamma", "op": "Const", "attr": {"dtype": {"type": "DT_FLOAT"}, "value": {"tensor": {"dtype": "DT_FLOAT", "tensorShape": {"dim": [{"size": "88"}]}}}}}, {"name": "resnet_model/batch_normalization_13/beta", "op": "Const", "attr": {"dtype": {"type": "DT_FLOAT"}, "value": {"tensor": {"dtype": "DT_FLOAT", "tensorShape": {"dim": [{"size": "88"}]}}}}}, {"name": "resnet_model/batch_normalization_13/moving_mean", "op": "Const", "attr": {"dtype": {"type": "DT_FLOAT"}, "value": {"tensor": {"dtype": "DT_FLOAT", "tensorShape": {"dim": [{"size": "88"}]}}}}}, {"name": "resnet_model/batch_normalization_13/moving_variance", "op": "Const", "attr": {"value": {"tensor": {"dtype": "DT_FLOAT", "tensorShape": {"dim": [{"size": "88"}]}}}, "dtype": {"type": "DT_FLOAT"}}}, {"name": "resnet_model/conv2d_16/SelfAttention_1/EConv2D_1/Variable", "op": "Const", "attr": {"dtype": {"type": "DT_FLOAT"}, "value": {"tensor": {"dtype": "DT_FLOAT", "tensorShape": {"dim": [{"size": "3"}, {"size": "3"}, {"size": "88"}, {"size": "2"}]}}}}}, {"name": "resnet_model/conv2d_16/SelfAttention_1/EConv2D_1/Variable_1", "op": "Const", "attr": {"dtype": {"type": "DT_FLOAT"}, "value": {"tensor": {"dtype": "DT_FLOAT", "tensorShape": {"dim": [{"size": "1"}, {"size": "1"}, {"size": "176"}, {"size": "92"}]}}}}}, {"name": "resnet_model/conv2d_16/SelfAttention_1/strided_slice/stack", "op": "Const", "device": "/device:GPU:0", "attr": {"dtype": {"type": "DT_INT32"}, "value": {"tensor": {"dtype": "DT_INT32", "tensorShape": {"dim": [{"size": "1"}]}}}}}, {"name": "resnet_model/conv2d_16/SelfAttention_1/strided_slice/stack_1", "op": "Const", "device": "/device:GPU:0", "attr": {"dtype": {"type": "DT_INT32"}, "value": {"tensor": {"dtype": "DT_INT32", "tensorShape": {"dim": [{"size": "1"}]}}}}}, {"name": "resnet_model/conv2d_16/SelfAttention_1/strided_slice/stack_2", "op": "Const", "device": "/device:GPU:0", "attr": {"dtype": {"type": "DT_INT32"}, "value": {"tensor": {"dtype": "DT_INT32", "tensorShape": {"dim": [{"size": "1"}]}}}}}, {"name": "resnet_model/conv2d_16/SelfAttention_1/Reshape_1/shape/1", "op": "Const", "device": "/device:GPU:0", "attr": {"value": {"tensor": {"dtype": "DT_INT32", "tensorShape": {}}}, "dtype": {"type": "DT_INT32"}}}, {"name": "resnet_model/conv2d_16/SelfAttention_1/Reshape_1/shape/2", "op": "Const", "device": "/device:GPU:0", "attr": {"dtype": {"type": "DT_INT32"}, "value": {"tensor": {"dtype": "DT_INT32", "tensorShape": {}}}}}, {"name": "resnet_model/conv2d_16/SelfAttention_1/Reshape_1/shape/3", "op": "Const", "device": "/device:GPU:0", "attr": {"dtype": {"type": "DT_INT32"}, "value": {"tensor": {"dtype": "DT_INT32", "tensorShape": {}}}}}, {"name": "resnet_model/batch_normalization_14/gamma", "op": "Const", "attr": {"value": {"tensor": {"dtype": "DT_FLOAT", "tensorShape": {"dim": [{"size": "92"}]}}}, "dtype": {"type": "DT_FLOAT"}}}, {"name": "resnet_model/batch_normalization_14/beta", "op": "Const", "attr": {"dtype": {"type": "DT_FLOAT"}, "value": {"tensor": {"dtype": "DT_FLOAT", "tensorShape": {"dim": [{"size": "92"}]}}}}}, {"name": "resnet_model/batch_normalization_14/moving_mean", "op": "Const", "attr": {"value": {"tensor": {"dtype": "DT_FLOAT", "tensorShape": {"dim": [{"size": "92"}]}}}, "dtype": {"type": "DT_FLOAT"}}}, {"name": "resnet_model/batch_normalization_14/moving_variance", "op": "Const", "attr": {"dtype": {"type": "DT_FLOAT"}, "value": {"tensor": {"dtype": "DT_FLOAT", "tensorShape": {"dim": [{"size": "92"}]}}}}}, {"name": "resnet_model/conv2d_17/SelfAttention_1/Variable", "op": "Const", "attr": {"value": {"tensor": {"dtype": "DT_FLOAT", "tensorShape": {"dim": [{"size": "1"}, {"size": "1"}, {"size": "92"}, {"size": "292"}]}}}, "dtype": {"type": "DT_FLOAT"}}}, {"name": "resnet_model/conv2d_17/SelfAttention_1/strided_slice/stack", "op": "Const", "device": "/device:GPU:0", "attr": {"dtype": {"type": "DT_INT32"}, "value": {"tensor": {"dtype": "DT_INT32", "tensorShape": {"dim": [{"size": "1"}]}}}}}, {"name": "resnet_model/conv2d_17/SelfAttention_1/strided_slice/stack_1", "op": "Const", "device": "/device:GPU:0", "attr": {"value": {"tensor": {"dtype": "DT_INT32", "tensorShape": {"dim": [{"size": "1"}]}}}, "dtype": {"type": "DT_INT32"}}}, {"name": "resnet_model/conv2d_17/SelfAttention_1/strided_slice/stack_2", "op": "Const", "device": "/device:GPU:0", "attr": {"dtype": {"type": "DT_INT32"}, "value": {"tensor": {"dtype": "DT_INT32", "tensorShape": {"dim": [{"size": "1"}]}}}}}, {"name": "resnet_model/conv2d_17/SelfAttention_1/Reshape_1/shape/1", "op": "Const", "device": "/device:GPU:0", "attr": {"dtype": {"type": "DT_INT32"}, "value": {"tensor": {"dtype": "DT_INT32", "tensorShape": {}}}}}, {"name": "resnet_model/conv2d_17/SelfAttention_1/Reshape_1/shape/2", "op": "Const", "device": "/device:GPU:0", "attr": {"dtype": {"type": "DT_INT32"}, "value": {"tensor": {"dtype": "DT_INT32", "tensorShape": {}}}}}, {"name": "resnet_model/conv2d_17/SelfAttention_1/Reshape_1/shape/3", "op": "Const", "device": "/device:GPU:0", "attr": {"dtype": {"type": "DT_INT32"}, "value": {"tensor": {"dtype": "DT_INT32", "tensorShape": {}}}}}, {"name": "resnet_model/conv2d_14/SelfAttention_1/Reshape/shape/1", "op": "Const", "device": "/device:GPU:0", "attr": {"dtype": {"type": "DT_INT32"}, "value": {"tensor": {"dtype": "DT_INT32", "tensorShape": {}}}}}, {"name": "resnet_model/conv2d_14/SelfAttention_1/Reshape/shape/2", "op": "Const", "device": "/device:GPU:0", "attr": {"dtype": {"type": "DT_INT32"}, "value": {"tensor": {"dtype": "DT_INT32", "tensorShape": {}}}}}, {"name": "resnet_model/conv2d_14/SelfAttention_1/Reshape/shape/3", "op": "Const", "device": "/device:GPU:0", "attr": {"dtype": {"type": "DT_INT32"}, "value": {"tensor": {"dtype": "DT_INT32", "tensorShape": {}}}}}, {"name": "resnet_model/conv2d_14/SelfAttention_1/Reshape/shape/4", "op": "Const", "device": "/device:GPU:0", "attr": {"dtype": {"type": "DT_INT32"}, "value": {"tensor": {"dtype": "DT_INT32", "tensorShape": {}}}}}, {"name": "resnet_model/conv2d_14/SelfAttention_1/Reshape/shape/5", "op": "Const", "device": "/device:GPU:0", "attr": {"value": {"tensor": {"dtype": "DT_INT32", "tensorShape": {}}}, "dtype": {"type": "DT_INT32"}}}, {"name": "resnet_model/conv2d_14/SelfAttention_1/BroadcastTo/shape/1", "op": "Const", "device": "/device:GPU:0", "attr": {"value": {"tensor": {"dtype": "DT_INT32", "tensorShape": {}}}, "dtype": {"type": "DT_INT32"}}}, {"name": "resnet_model/conv2d_14/SelfAttention_1/BroadcastTo/shape/2", "op": "Const", "device": "/device:GPU:0", "attr": {"dtype": {"type": "DT_INT32"}, "value": {"tensor": {"dtype": "DT_INT32", "tensorShape": {}}}}}, {"name": "resnet_model/conv2d_14/SelfAttention_1/BroadcastTo/shape/3", "op": "Const", "device": "/device:GPU:0", "attr": {"value": {"tensor": {"dtype": "DT_INT32", "tensorShape": {}}}, "dtype": {"type": "DT_INT32"}}}, {"name": "resnet_model/conv2d_14/SelfAttention_1/BroadcastTo/shape/4", "op": "Const", "device": "/device:GPU:0", "attr": {"value": {"tensor": {"dtype": "DT_INT32", "tensorShape": {}}}, "dtype": {"type": "DT_INT32"}}}, {"name": "resnet_model/conv2d_14/SelfAttention_1/BroadcastTo/shape/5", "op": "Const", "device": "/device:GPU:0", "attr": {"dtype": {"type": "DT_INT32"}, "value": {"tensor": {"dtype": "DT_INT32", "tensorShape": {}}}}}, {"name": "resnet_model/conv2d_12/SelfAttention_1/Reshape/shape/1", "op": "Const", "device": "/device:GPU:0", "attr": {"value": {"tensor": {"dtype": "DT_INT32", "tensorShape": {}}}, "dtype": {"type": "DT_INT32"}}}, {"name": "resnet_model/conv2d_12/SelfAttention_1/Reshape/shape/2", "op": "Const", "device": "/device:GPU:0", "attr": {"dtype": {"type": "DT_INT32"}, "value": {"tensor": {"dtype": "DT_INT32", "tensorShape": {}}}}}, {"name": "resnet_model/conv2d_12/SelfAttention_1/Reshape/shape/3", "op": "Const", "device": "/device:GPU:0", "attr": {"value": {"tensor": {"dtype": "DT_INT32", "tensorShape": {}}}, "dtype": {"type": "DT_INT32"}}}, {"name": "resnet_model/conv2d_12/SelfAttention_1/Reshape/shape/4", "op": "Const", "device": "/device:GPU:0", "attr": {"value": {"tensor": {"dtype": "DT_INT32", "tensorShape": {}}}, "dtype": {"type": "DT_INT32"}}}, {"name": "resnet_model/conv2d_12/SelfAttention_1/Reshape/shape/5", "op": "Const", "device": "/device:GPU:0", "attr": {"dtype": {"type": "DT_INT32"}, "value": {"tensor": {"dtype": "DT_INT32", "tensorShape": {}}}}}, {"name": "resnet_model/conv2d_12/SelfAttention_1/BroadcastTo/shape/1", "op": "Const", "device": "/device:GPU:0", "attr": {"dtype": {"type": "DT_INT32"}, "value": {"tensor": {"dtype": "DT_INT32", "tensorShape": {}}}}}, {"name": "resnet_model/conv2d_12/SelfAttention_1/BroadcastTo/shape/2", "op": "Const", "device": "/device:GPU:0", "attr": {"dtype": {"type": "DT_INT32"}, "value": {"tensor": {"dtype": "DT_INT32", "tensorShape": {}}}}}, {"name": "resnet_model/conv2d_12/SelfAttention_1/BroadcastTo/shape/3", "op": "Const", "device": "/device:GPU:0", "attr": {"dtype": {"type": "DT_INT32"}, "value": {"tensor": {"dtype": "DT_INT32", "tensorShape": {}}}}}, {"name": "resnet_model/conv2d_12/SelfAttention_1/BroadcastTo/shape/4", "op": "Const", "device": "/device:GPU:0", "attr": {"dtype": {"type": "DT_INT32"}, "value": {"tensor": {"dtype": "DT_INT32", "tensorShape": {}}}}}, {"name": "resnet_model/conv2d_12/SelfAttention_1/BroadcastTo/shape/5", "op": "Const", "device": "/device:GPU:0", "attr": {"value": {"tensor": {"dtype": "DT_INT32", "tensorShape": {}}}, "dtype": {"type": "DT_INT32"}}}, {"name": "resnet_model/conv2d_12/SelfAttention_1/Variable", "op": "Const", "attr": {"value": {"tensor": {"dtype": "DT_FLOAT", "tensorShape": {"dim": [{"size": "1"}, {"size": "1"}, {"size": "144"}, {"size": "88"}]}}}, "dtype": {"type": "DT_FLOAT"}}}, {"name": "resnet_model/conv2d_12/SelfAttention_1/strided_slice/stack", "op": "Const", "device": "/device:GPU:0", "attr": {"dtype": {"type": "DT_INT32"}, "value": {"tensor": {"dtype": "DT_INT32", "tensorShape": {"dim": [{"size": "1"}]}}}}}, {"name": "resnet_model/conv2d_12/SelfAttention_1/strided_slice/stack_1", "op": "Const", "device": "/device:GPU:0", "attr": {"dtype": {"type": "DT_INT32"}, "value": {"tensor": {"dtype": "DT_INT32", "tensorShape": {"dim": [{"size": "1"}]}}}}}, {"name": "resnet_model/conv2d_12/SelfAttention_1/strided_slice/stack_2", "op": "Const", "device": "/device:GPU:0", "attr": {"dtype": {"type": "DT_INT32"}, "value": {"tensor": {"dtype": "DT_INT32", "tensorShape": {"dim": [{"size": "1"}]}}}}}, {"name": "resnet_model/conv2d_12/SelfAttention_1/Reshape_1/shape/1", "op": "Const", "device": "/device:GPU:0", "attr": {"dtype": {"type": "DT_INT32"}, "value": {"tensor": {"dtype": "DT_INT32", "tensorShape": {}}}}}, {"name": "resnet_model/conv2d_12/SelfAttention_1/Reshape_1/shape/2", "op": "Const", "device": "/device:GPU:0", "attr": {"dtype": {"type": "DT_INT32"}, "value": {"tensor": {"dtype": "DT_INT32", "tensorShape": {}}}}}, {"name": "resnet_model/conv2d_12/SelfAttention_1/Reshape_1/shape/3", "op": "Const", "device": "/device:GPU:0", "attr": {"dtype": {"type": "DT_INT32"}, "value": {"tensor": {"dtype": "DT_INT32", "tensorShape": {}}}}}, {"name": "resnet_model/batch_normalization_10/gamma", "op": "Const", "attr": {"dtype": {"type": "DT_FLOAT"}, "value": {"tensor": {"dtype": "DT_FLOAT", "tensorShape": {"dim": [{"size": "88"}]}}}}}, {"name": "resnet_model/batch_normalization_10/beta", "op": "Const", "attr": {"value": {"tensor": {"dtype": "DT_FLOAT", "tensorShape": {"dim": [{"size": "88"}]}}}, "dtype": {"type": "DT_FLOAT"}}}, {"name": "resnet_model/batch_normalization_10/moving_mean", "op": "Const", "attr": {"dtype": {"type": "DT_FLOAT"}, "value": {"tensor": {"dtype": "DT_FLOAT", "tensorShape": {"dim": [{"size": "88"}]}}}}}, {"name": "resnet_model/batch_normalization_10/moving_variance", "op": "Const", "attr": {"dtype": {"type": "DT_FLOAT"}, "value": {"tensor": {"dtype": "DT_FLOAT", "tensorShape": {"dim": [{"size": "88"}]}}}}}, {"name": "resnet_model/Pad_2/paddings", "op": "Const", "device": "/device:GPU:0", "attr": {"dtype": {"type": "DT_INT32"}, "value": {"tensor": {"dtype": "DT_INT32", "tensorShape": {"dim": [{"size": "4"}, {"size": "2"}]}}}}}, {"name": "resnet_model/conv2d_13/EConv2D_1/Variable", "op": "Const", "attr": {"dtype": {"type": "DT_FLOAT"}, "value": {"tensor": {"dtype": "DT_FLOAT", "tensorShape": {"dim": [{"size": "3"}, {"size": "3"}, {"size": "88"}, {"size": "2"}]}}}}}, {"name": "resnet_model/conv2d_14/SelfAttention_1/Variable", "op": "Const", "attr": {"value": {"tensor": {"dtype": "DT_FLOAT", "tensorShape": {"dim": [{"size": "1"}, {"size": "1"}, {"size": "88"}, {"size": "292"}]}}}, "dtype": {"type": "DT_FLOAT"}}}, {"name": "resnet_model/conv2d_14/SelfAttention_1/strided_slice/stack", "op": "Const", "device": "/device:GPU:0", "attr": {"value": {"tensor": {"dtype": "DT_INT32", "tensorShape": {"dim": [{"size": "1"}]}}}, "dtype": {"type": "DT_INT32"}}}, {"name": "resnet_model/conv2d_14/SelfAttention_1/strided_slice/stack_1", "op": "Const", "device": "/device:GPU:0", "attr": {"value": {"tensor": {"dtype": "DT_INT32", "tensorShape": {"dim": [{"size": "1"}]}}}, "dtype": {"type": "DT_INT32"}}}, {"name": "resnet_model/conv2d_14/SelfAttention_1/strided_slice/stack_2", "op": "Const", "device": "/device:GPU:0", "attr": {"value": {"tensor": {"dtype": "DT_INT32", "tensorShape": {"dim": [{"size": "1"}]}}}, "dtype": {"type": "DT_INT32"}}}, {"name": "resnet_model/conv2d_14/SelfAttention_1/Reshape_1/shape/1", "op": "Const", "device": "/device:GPU:0", "attr": {"value": {"tensor": {"dtype": "DT_INT32", "tensorShape": {}}}, "dtype": {"type": "DT_INT32"}}}, {"name": "resnet_model/conv2d_14/SelfAttention_1/Reshape_1/shape/2", "op": "Const", "device": "/device:GPU:0", "attr": {"dtype": {"type": "DT_INT32"}, "value": {"tensor": {"dtype": "DT_INT32", "tensorShape": {}}}}}, {"name": "resnet_model/conv2d_14/SelfAttention_1/Reshape_1/shape/3", "op": "Const", "device": "/device:GPU:0", "attr": {"dtype": {"type": "DT_INT32"}, "value": {"tensor": {"dtype": "DT_INT32", "tensorShape": {}}}}}, {"name": "resnet_model/conv2d_11/SelfAttention_1/Reshape/shape/1", "op": "Const", "device": "/device:GPU:0", "attr": {"dtype": {"type": "DT_INT32"}, "value": {"tensor": {"dtype": "DT_INT32", "tensorShape": {}}}}}, {"name": "resnet_model/conv2d_11/SelfAttention_1/Reshape/shape/2", "op": "Const", "device": "/device:GPU:0", "attr": {"dtype": {"type": "DT_INT32"}, "value": {"tensor": {"dtype": "DT_INT32", "tensorShape": {}}}}}, {"name": "resnet_model/conv2d_11/SelfAttention_1/Reshape/shape/3", "op": "Const", "device": "/device:GPU:0", "attr": {"value": {"tensor": {"dtype": "DT_INT32", "tensorShape": {}}}, "dtype": {"type": "DT_INT32"}}}, {"name": "resnet_model/conv2d_11/SelfAttention_1/Reshape/shape/4", "op": "Const", "device": "/device:GPU:0", "attr": {"value": {"tensor": {"dtype": "DT_INT32", "tensorShape": {}}}, "dtype": {"type": "DT_INT32"}}}, {"name": "resnet_model/conv2d_11/SelfAttention_1/Reshape/shape/5", "op": "Const", "device": "/device:GPU:0", "attr": {"value": {"tensor": {"dtype": "DT_INT32", "tensorShape": {}}}, "dtype": {"type": "DT_INT32"}}}, {"name": "resnet_model/conv2d_11/SelfAttention_1/BroadcastTo/shape/1", "op": "Const", "device": "/device:GPU:0", "attr": {"dtype": {"type": "DT_INT32"}, "value": {"tensor": {"dtype": "DT_INT32", "tensorShape": {}}}}}, {"name": "resnet_model/conv2d_11/SelfAttention_1/BroadcastTo/shape/2", "op": "Const", "device": "/device:GPU:0", "attr": {"dtype": {"type": "DT_INT32"}, "value": {"tensor": {"dtype": "DT_INT32", "tensorShape": {}}}}}, {"name": "resnet_model/conv2d_11/SelfAttention_1/BroadcastTo/shape/3", "op": "Const", "device": "/device:GPU:0", "attr": {"dtype": {"type": "DT_INT32"}, "value": {"tensor": {"dtype": "DT_INT32", "tensorShape": {}}}}}, {"name": "resnet_model/conv2d_11/SelfAttention_1/BroadcastTo/shape/4", "op": "Const", "device": "/device:GPU:0", "attr": {"dtype": {"type": "DT_INT32"}, "value": {"tensor": {"dtype": "DT_INT32", "tensorShape": {}}}}}, {"name": "resnet_model/conv2d_11/SelfAttention_1/BroadcastTo/shape/5", "op": "Const", "device": "/device:GPU:0", "attr": {"value": {"tensor": {"dtype": "DT_INT32", "tensorShape": {}}}, "dtype": {"type": "DT_INT32"}}}, {"name": "resnet_model/conv2d_10/SelfAttention_1/Reshape/shape/1", "op": "Const", "device": "/device:GPU:0", "attr": {"value": {"tensor": {"dtype": "DT_INT32", "tensorShape": {}}}, "dtype": {"type": "DT_INT32"}}}, {"name": "resnet_model/conv2d_10/SelfAttention_1/Reshape/shape/2", "op": "Const", "device": "/device:GPU:0", "attr": {"value": {"tensor": {"dtype": "DT_INT32", "tensorShape": {}}}, "dtype": {"type": "DT_INT32"}}}, {"name": "resnet_model/conv2d_10/SelfAttention_1/Reshape/shape/3", "op": "Const", "device": "/device:GPU:0", "attr": {"dtype": {"type": "DT_INT32"}, "value": {"tensor": {"dtype": "DT_INT32", "tensorShape": {}}}}}, {"name": "resnet_model/conv2d_10/SelfAttention_1/Reshape/shape/4", "op": "Const", "device": "/device:GPU:0", "attr": {"value": {"tensor": {"dtype": "DT_INT32", "tensorShape": {}}}, "dtype": {"type": "DT_INT32"}}}, {"name": "resnet_model/conv2d_10/SelfAttention_1/Reshape/shape/5", "op": "Const", "device": "/device:GPU:0", "attr": {"dtype": {"type": "DT_INT32"}, "value": {"tensor": {"dtype": "DT_INT32", "tensorShape": {}}}}}, {"name": "resnet_model/conv2d_10/SelfAttention_1/BroadcastTo/shape/1", "op": "Const", "device": "/device:GPU:0", "attr": {"dtype": {"type": "DT_INT32"}, "value": {"tensor": {"dtype": "DT_INT32", "tensorShape": {}}}}}, {"name": "resnet_model/conv2d_10/SelfAttention_1/BroadcastTo/shape/2", "op": "Const", "device": "/device:GPU:0", "attr": {"value": {"tensor": {"dtype": "DT_INT32", "tensorShape": {}}}, "dtype": {"type": "DT_INT32"}}}, {"name": "resnet_model/conv2d_10/SelfAttention_1/BroadcastTo/shape/3", "op": "Const", "device": "/device:GPU:0", "attr": {"value": {"tensor": {"dtype": "DT_INT32", "tensorShape": {}}}, "dtype": {"type": "DT_INT32"}}}, {"name": "resnet_model/conv2d_10/SelfAttention_1/BroadcastTo/shape/4", "op": "Const", "device": "/device:GPU:0", "attr": {"dtype": {"type": "DT_INT32"}, "value": {"tensor": {"dtype": "DT_INT32", "tensorShape": {}}}}}, {"name": "resnet_model/conv2d_10/SelfAttention_1/BroadcastTo/shape/5", "op": "Const", "device": "/device:GPU:0", "attr": {"dtype": {"type": "DT_INT32"}, "value": {"tensor": {"dtype": "DT_INT32", "tensorShape": {}}}}}, {"name": "resnet_model/conv2d_9/SelfAttention_1/Reshape/shape/1", "op": "Const", "device": "/device:GPU:0", "attr": {"value": {"tensor": {"dtype": "DT_INT32", "tensorShape": {}}}, "dtype": {"type": "DT_INT32"}}}, {"name": "resnet_model/conv2d_9/SelfAttention_1/Reshape/shape/2", "op": "Const", "device": "/device:GPU:0", "attr": {"dtype": {"type": "DT_INT32"}, "value": {"tensor": {"dtype": "DT_INT32", "tensorShape": {}}}}}, {"name": "resnet_model/conv2d_9/SelfAttention_1/Reshape/shape/3", "op": "Const", "device": "/device:GPU:0", "attr": {"dtype": {"type": "DT_INT32"}, "value": {"tensor": {"dtype": "DT_INT32", "tensorShape": {}}}}}, {"name": "resnet_model/conv2d_9/SelfAttention_1/Reshape/shape/4", "op": "Const", "device": "/device:GPU:0", "attr": {"dtype": {"type": "DT_INT32"}, "value": {"tensor": {"dtype": "DT_INT32", "tensorShape": {}}}}}, {"name": "resnet_model/conv2d_9/SelfAttention_1/Reshape/shape/5", "op": "Const", "device": "/device:GPU:0", "attr": {"dtype": {"type": "DT_INT32"}, "value": {"tensor": {"dtype": "DT_INT32", "tensorShape": {}}}}}, {"name": "resnet_model/conv2d_9/SelfAttention_1/BroadcastTo/shape/1", "op": "Const", "device": "/device:GPU:0", "attr": {"dtype": {"type": "DT_INT32"}, "value": {"tensor": {"dtype": "DT_INT32", "tensorShape": {}}}}}, {"name": "resnet_model/conv2d_9/SelfAttention_1/BroadcastTo/shape/2", "op": "Const", "device": "/device:GPU:0", "attr": {"value": {"tensor": {"dtype": "DT_INT32", "tensorShape": {}}}, "dtype": {"type": "DT_INT32"}}}, {"name": "resnet_model/conv2d_9/SelfAttention_1/BroadcastTo/shape/3", "op": "Const", "device": "/device:GPU:0", "attr": {"dtype": {"type": "DT_INT32"}, "value": {"tensor": {"dtype": "DT_INT32", "tensorShape": {}}}}}, {"name": "resnet_model/conv2d_9/SelfAttention_1/BroadcastTo/shape/4", "op": "Const", "device": "/device:GPU:0", "attr": {"dtype": {"type": "DT_INT32"}, "value": {"tensor": {"dtype": "DT_INT32", "tensorShape": {}}}}}, {"name": "resnet_model/conv2d_9/SelfAttention_1/BroadcastTo/shape/5", "op": "Const", "device": "/device:GPU:0", "attr": {"dtype": {"type": "DT_INT32"}, "value": {"tensor": {"dtype": "DT_INT32", "tensorShape": {}}}}}, {"name": "resnet_model/conv2d_8/SelfAttention_1/Reshape/shape/1", "op": "Const", "device": "/device:GPU:0", "attr": {"dtype": {"type": "DT_INT32"}, "value": {"tensor": {"dtype": "DT_INT32", "tensorShape": {}}}}}, {"name": "resnet_model/conv2d_8/SelfAttention_1/Reshape/shape/2", "op": "Const", "device": "/device:GPU:0", "attr": {"dtype": {"type": "DT_INT32"}, "value": {"tensor": {"dtype": "DT_INT32", "tensorShape": {}}}}}, {"name": "resnet_model/conv2d_8/SelfAttention_1/Reshape/shape/3", "op": "Const", "device": "/device:GPU:0", "attr": {"value": {"tensor": {"dtype": "DT_INT32", "tensorShape": {}}}, "dtype": {"type": "DT_INT32"}}}, {"name": "resnet_model/conv2d_8/SelfAttention_1/Reshape/shape/4", "op": "Const", "device": "/device:GPU:0", "attr": {"value": {"tensor": {"dtype": "DT_INT32", "tensorShape": {}}}, "dtype": {"type": "DT_INT32"}}}, {"name": "resnet_model/conv2d_8/SelfAttention_1/Reshape/shape/5", "op": "Const", "device": "/device:GPU:0", "attr": {"dtype": {"type": "DT_INT32"}, "value": {"tensor": {"dtype": "DT_INT32", "tensorShape": {}}}}}, {"name": "resnet_model/conv2d_8/SelfAttention_1/BroadcastTo/shape/1", "op": "Const", "device": "/device:GPU:0", "attr": {"value": {"tensor":…
, {"name": "resnet_model/conv2d_24/SelfAttention_1/BroadcastTo/shape/2", "shape": [], "dtype": "int32"}, {"name": "resnet_model/conv2d_24/SelfAttention_1/BroadcastTo/shape/3", "shape": [], "dtype": "int32"}, {"name": "resnet_model/conv2d_24/SelfAttention_1/BroadcastTo/shape/4", "shape": [], "dtype": "int32"}, {"name": "resnet_model/conv2d_24/SelfAttention_1/BroadcastTo/shape/5", "shape": [], "dtype": "int32"}, {"name": "resnet_model/conv2d_23/SelfAttention_1/Reshape/shape/1", "shape": [], "dtype": "int32"}, {"name": "resnet_model/conv2d_23/SelfAttention_1/Reshape/shape/2", "shape": [], "dtype": "int32"}, {"name": "resnet_model/conv2d_23/SelfAttention_1/Reshape/shape/3", "shape": [], "dtype": "int32"}, {"name": "resnet_model/conv2d_23/SelfAttention_1/Reshape/shape/4", "shape": [], "dtype": "int32"}, {"name": "resnet_model/conv2d_23/SelfAttention_1/Reshape/shape/5", "shape": [], "dtype": "int32"}, {"name": "resnet_model/conv2d_23/SelfAttention_1/BroadcastTo/shape/1", "shape": [], "dtype": "int32"}, {"name": "resnet_model/conv2d_23/SelfAttention_1/BroadcastTo/shape/2", "shape": [], "dtype": "int32"}, {"name": "resnet_model/conv2d_23/SelfAttention_1/BroadcastTo/shape/3", "shape": [], "dtype": "int32"}, {"name": "resnet_model/conv2d_23/SelfAttention_1/BroadcastTo/shape/4", "shape": [], "dtype": "int32"}, {"name": "resnet_model/conv2d_23/SelfAttention_1/BroadcastTo/shape/5", "shape": [], "dtype": "int32"}, {"name": "resnet_model/conv2d_22/SelfAttention_1/Reshape/shape/1", "shape": [], "dtype": "int32"}, {"name": "resnet_model/conv2d_22/SelfAttention_1/Reshape/shape/2", "shape": [], "dtype": "int32"}, {"name": "resnet_model/conv2d_22/SelfAttention_1/Reshape/shape/3", "shape": [], "dtype": "int32"}, {"name": "resnet_model/conv2d_22/SelfAttention_1/Reshape/shape/4", "shape": [], "dtype": "int32"}, {"name": "resnet_model/conv2d_22/SelfAttention_1/Reshape/shape/5", "shape": [], "dtype": "int32"}, {"name": "resnet_model/conv2d_22/SelfAttention_1/BroadcastTo/shape/1", "shape": [], "dtype": "int32"}, {"name": "resnet_model/conv2d_22/SelfAttention_1/BroadcastTo/shape/2", "shape": [], "dtype": "int32"}, {"name": "resnet_model/conv2d_22/SelfAttention_1/BroadcastTo/shape/3", "shape": [], "dtype": "int32"}, {"name": "resnet_model/conv2d_22/SelfAttention_1/BroadcastTo/shape/4", "shape": [], "dtype": "int32"}, {"name": "resnet_model/conv2d_22/SelfAttention_1/BroadcastTo/shape/5", "shape": [], "dtype": "int32"}, {"name": "resnet_model/conv2d_21/SelfAttention_1/Reshape/shape/1", "shape": [], "dtype": "int32"}, {"name": "resnet_model/conv2d_21/SelfAttention_1/Reshape/shape/2", "shape": [], "dtype": "int32"}, {"name": "resnet_model/conv2d_21/SelfAttention_1/Reshape/shape/3", "shape": [], "dtype": "int32"}, {"name": "resnet_model/conv2d_21/SelfAttention_1/Reshape/shape/4", "shape": [], "dtype": "int32"}, {"name": "resnet_model/conv2d_21/SelfAttention_1/Reshape/shape/5", "shape": [], "dtype": "int32"}, {"name": "resnet_model/conv2d_21/SelfAttention_1/BroadcastTo/shape/1", "shape": [], "dtype": "int32"}, {"name": "resnet_model/conv2d_21/SelfAttention_1/BroadcastTo/shape/2", "shape": [], "dtype": "int32"}, {"name": "resnet_model/conv2d_21/SelfAttention_1/BroadcastTo/shape/3", "shape": [], "dtype": "int32"}, {"name": "resnet_model/conv2d_21/SelfAttention_1/BroadcastTo/shape/4", "shape": [], "dtype": "int32"}, {"name": "resnet_model/conv2d_21/SelfAttention_1/BroadcastTo/shape/5", "shape": [], "dtype": "int32"}, {"name": "resnet_model/batch_normalization_18/gamma", "shape": [292], "dtype": "float32"}, {"name": "resnet_model/batch_normalization_18/beta", "shape": [292], "dtype": "float32"}, {"name": "resnet_model/batch_normalization_18/moving_mean", "shape": [292], "dtype": "float32"}, {"name": "resnet_model/batch_normalization_18/moving_variance", "shape": [292], "dtype": "float32"}, {"name": "resnet_model/conv2d_21/SelfAttention_1/Variable", "shape": [1, 1, 292, 88], "dtype": "float32"}, {"name": "resnet_model/conv2d_21/SelfAttention_1/strided_slice/stack", "shape": [1], "dtype": "int32"}, {"name": "resnet_model/conv2d_21/SelfAttention_1/strided_slice/stack_1", "shape": [1], "dtype": "int32"}, {"name": "resnet_model/conv2d_21/SelfAttention_1/strided_slice/stack_2", "shape": [1], "dtype": "int32"}, {"name": "resnet_model/conv2d_21/SelfAttention_1/Reshape_1/shape/1", "shape": [], "dtype": "int32"}, {"name": "resnet_model/conv2d_21/SelfAttention_1/Reshape_1/shape/2", "shape": [], "dtype": "int32"}, {"name": "resnet_model/conv2d_21/SelfAttention_1/Reshape_1/shape/3", "shape": [], "dtype": "int32"}, {"name": "resnet_model/batch_normalization_19/gamma", "shape": [88], "dtype": "float32"}, {"name": "resnet_model/batch_normalization_19/beta", "shape": [88], "dtype": "float32"}, {"name": "resnet_model/batch_normalization_19/moving_mean", "shape": [88], "dtype": "float32"}, {"name": "resnet_model/batch_normalization_19/moving_variance", "shape": [88], "dtype": "float32"}, {"name": "resnet_model/conv2d_22/SelfAttention_1/EConv2D_1/Variable", "shape": [3, 3, 88, 2], "dtype": "float32"}, {"name": "resnet_model/conv2d_22/SelfAttention_1/EConv2D_1/Variable_1", "shape": [1, 1, 176, 92], "dtype": "float32"}, {"name": "resnet_model/conv2d_22/SelfAttention_1/strided_slice/stack", "shape": [1], "dtype": "int32"}, {"name": "resnet_model/conv2d_22/SelfAttention_1/strided_slice/stack_1", "shape": [1], "dtype": "int32"}, {"name": "resnet_model/conv2d_22/SelfAttention_1/strided_slice/stack_2", "shape": [1], "dtype": "int32"}, {"name": "resnet_model/conv2d_22/SelfAttention_1/Reshape_1/shape/1", "shape": [], "dtype": "int32"}, {"name": "resnet_model/conv2d_22/SelfAttention_1/Reshape_1/shape/2", "shape": [], "dtype": "int32"}, {"name": "resnet_model/conv2d_22/SelfAttention_1/Reshape_1/shape/3", "shape": [], "dtype": "int32"}, {"name": "resnet_model/batch_normalization_20/gamma", "shape": [92], "dtype": "float32"}, {"name": "resnet_model/batch_normalization_20/beta", "shape": [92], "dtype": "float32"}, {"name": "resnet_model/batch_normalization_20/moving_mean", "shape": [92], "dtype": "float32"}, {"name": "resnet_model/batch_normalization_20/moving_variance", "shape": [92], "dtype": "float32"}, {"name": "resnet_model/conv2d_23/SelfAttention_1/Variable", "shape": [1, 1, 92, 292], "dtype": "float32"}, {"name": "resnet_model/conv2d_23/SelfAttention_1/strided_slice/stack", "shape": [1], "dtype": "int32"}, {"name": "resnet_model/conv2d_23/SelfAttention_1/strided_slice/stack_1", "shape": [1], "dtype": "int32"}, {"name": "resnet_model/conv2d_23/SelfAttention_1/strided_slice/stack_2", "shape": [1], "dtype": "int32"}, {"name": "resnet_model/conv2d_23/SelfAttention_1/Reshape_1/shape/1", "shape": [], "dtype": "int32"}, {"name": "resnet_model/conv2d_23/SelfAttention_1/Reshape_1/shape/2", "shape": [], "dtype": "int32"}, {"name": "resnet_model/conv2d_23/SelfAttention_1/Reshape_1/shape/3", "shape": [], "dtype": "int32"}, {"name": "resnet_model/conv2d_20/SelfAttention_1/Reshape/shape/1", "shape": [], "dtype": "int32"}, {"name": "resnet_model/conv2d_20/SelfAttention_1/Reshape/shape/2", "shape": [], "dtype": "int32"}, {"name": "resnet_model/conv2d_20/SelfAttention_1/Reshape/shape/3", "shape": [], "dtype": "int32"}, {"name": "resnet_model/conv2d_20/SelfAttention_1/Reshape/shape/4", "shape": [], "dtype": "int32"}, {"name": "resnet_model/conv2d_20/SelfAttention_1/Reshape/shape/5", "shape": [], "dtype": "int32"}, {"name": "resnet_model/conv2d_20/SelfAttention_1/BroadcastTo/shape/1", "shape": [], "dtype": "int32"}, {"name": "resnet_model/conv2d_20/SelfAttention_1/BroadcastTo/shape/2", "shape": [], "dtype": "int32"}, {"name": "resnet_model/conv2d_20/SelfAttention_1/BroadcastTo/shape/3", "shape": [], "dtype": "int32"}, {"name": "resnet_model/conv2d_20/SelfAttention_1/BroadcastTo/shape/4", "shape": [], "dtype": "int32"}, {"name": "resnet_model/conv2d_20/SelfAttention_1/BroadcastTo/shape/5", "shape": [], "dtype": "int32"}, {"name": "resnet_model/conv2d_19/SelfAttention_1/Reshape/shape/1", "shape": [], "dtype": "int32"}, {"name": "resnet_model/conv2d_19/SelfAttention_1/Reshape/shape/2", "shape": [], "dtype": "int32"}, {"name": "resnet_model/conv2d_19/SelfAttention_1/Reshape/shape/3", "shape": [], "dtype": "int32"}, {"name": "resnet_model/conv2d_19/SelfAttention_1/Reshape/shape/4", "shape": [], "dtype": "int32"}, {"name": "resnet_model/conv2d_19/SelfAttention_1/Reshape/shape/5", "shape": [], "dtype": "int32"}, {"name": "resnet_model/conv2d_19/SelfAttention_1/BroadcastTo/shape/1", "shape": [], "dtype": "int32"}, {"name": "resnet_model/conv2d_19/SelfAttention_1/BroadcastTo/shape/2", "shape": [], "dtype": "int32"}, {"name": "resnet_model/conv2d_19/SelfAttention_1/BroadcastTo/shape/3", "shape": [], "dtype": "int32"}, {"name": "resnet_model/conv2d_19/SelfAttention_1/BroadcastTo/shape/4", "shape": [], "dtype": "int32"}, {"name": "resnet_model/conv2d_19/SelfAttention_1/BroadcastTo/shape/5", "shape": [], "dtype": "int32"}, {"name": "resnet_model/conv2d_18/SelfAttention_1/Reshape/shape/1", "shape": [], "dtype": "int32"}, {"name": "resnet_model/conv2d_18/SelfAttention_1/Reshape/shape/2", "shape": [], "dtype": "int32"}, {"name": "resnet_model/conv2d_18/SelfAttention_1/Reshape/shape/3", "shape": [], "dtype": "int32"}, {"name": "resnet_model/conv2d_18/SelfAttention_1/Reshape/shape/4", "shape": [], "dtype": "int32"}, {"name": "resnet_model/conv2d_18/SelfAttention_1/Reshape/shape/5", "shape": [], "dtype": "int32"}, {"name": "resnet_model/conv2d_18/SelfAttention_1/BroadcastTo/shape/1", "shape": [], "dtype": "int32"}, {"name": "resnet_model/conv2d_18/SelfAttention_1/BroadcastTo/shape/2", "shape": [], "dtype": "int32"}, {"name": "resnet_model/conv2d_18/SelfAttention_1/BroadcastTo/shape/3", "shape": [], "dtype": "int32"}, {"name": "resnet_model/conv2d_18/SelfAttention_1/BroadcastTo/shape/4", "shape": [], "dtype": "int32"}, {"name": "resnet_model/conv2d_18/SelfAttention_1/BroadcastTo/shape/5", "shape": [], "dtype": "int32"}, {"name": "resnet_model/batch_normalization_15/gamma", "shape": [292], "dtype": "float32"}, {"name": "resnet_model/batch_normalization_15/beta", "shape": [292], "dtype": "float32"}, {"name": "resnet_model/batch_normalization_15/moving_mean", "shape": [292], "dtype": "float32"}, {"name": "resnet_model/batch_normalization_15/moving_variance", "shape": [292], "dtype": "float32"}, {"name": "resnet_model/conv2d_18/SelfAttention_1/Variable", "shape": [1, 1, 292, 88], "dtype": "float32"}, {"name": "resnet_model/conv2d_18/SelfAttention_1/strided_slice/stack", "shape": [1], "dtype": "int32"}, {"name": "resnet_model/conv2d_18/SelfAttention_1/strided_slice/stack_1", "shape": [1], "dtype": "int32"}, {"name": "resnet_model/conv2d_18/SelfAttention_1/strided_slice/stack_2", "shape": [1], "dtype": "int32"}, {"name": "resnet_model/conv2d_18/SelfAttention_1/Reshape_1/shape/1", "shape": [], "dtype": "int32"}, {"name": "resnet_model/conv2d_18/SelfAttention_1/Reshape_1/shape/2", "shape": [], "dtype": "int32"}, {"name": "resnet_model/conv2d_18/SelfAttention_1/Reshape_1/shape/3", "shape": [], "dtype": "int32"}, {"name": "resnet_model/batch_normalization_16/gamma", "shape": [88], "dtype": "float32"}, {"name": "resnet_model/batch_normalization_16/beta", "shape": [88], "dtype": "float32"}, {"name": "resnet_model/batch_normalization_16/moving_mean", "shape": [88], "dtype": "float32"}, {"name": "resnet_model/batch_normalization_16/moving_variance", "shape": [88], "dtype": "float32"}, {"name": "resnet_model/conv2d_19/SelfAttention_1/EConv2D_1/Variable", "shape": [3, 3, 88, 2], "dtype": "float32"}, {"name": "resnet_model/conv2d_19/SelfAttention_1/EConv2D_1/Variable_1", "shape": [1, 1, 176, 88], "dtype": "float32"}, {"name": "resnet_model/conv2d_19/SelfAttention_1/strided_slice/stack", "shape": [1], "dtype": "int32"}, {"name": "resnet_model/conv2d_19/SelfAttention_1/strided_slice/stack_1", "shape": [1], "dtype": "int32"}, {"name": "resnet_model/conv2d_19/SelfAttention_1/strided_slice/stack_2", "shape": [1], "dtype": "int32"}, {"name": "resnet_model/conv2d_19/SelfAttention_1/Reshape_1/shape/1", "shape": [], "dtype": "int32"}, {"name": "resnet_model/conv2d_19/SelfAttention_1/Reshape_1/shape/2", "shape": [], "dtype": "int32"}, {"name": "resnet_model/conv2d_19/SelfAttention_1/Reshape_1/shape/3", "shape": [], "dtype": "int32"}, {"name": "resnet_model/batch_normalization_17/gamma", "shape": [88], "dtype": "float32"}, {"name": "resnet_model/batch_normalization_17/beta", "shape": [88], "dtype": "float32"}, {"name": "resnet_model/batch_normalization_17/moving_mean", "shape": [88], "dtype": "float32"}, {"name": "resnet_model/batch_normalization_17/moving_variance", "shape": [88], "dtype": "float32"}, {"name": "resnet_model/conv2d_20/SelfAttention_1/Variable", "shape": [1, 1, 88, 292], "dtype": "float32"}, {"name": "resnet_model/conv2d_20/SelfAttention_1/strided_slice/stack", "shape": [1], "dtype": "int32"}, {"name": "resnet_model/conv2d_20/SelfAttention_1/strided_slice/stack_1", "shape": [1], "dtype": "int32"}, {"name": "resnet_model/conv2d_20/SelfAttention_1/strided_slice/stack_2", "shape": [1], "dtype": "int32"}, {"name": "resnet_model/conv2d_20/SelfAttention_1/Reshape_1/shape/1", "shape": [], "dtype": "int32"}, {"name": "resnet_model/conv2d_20/SelfAttention_1/Reshape_1/shape/2", "shape": [], "dtype": "int32"}, {"name": "resnet_model/conv2d_20/SelfAttention_1/Reshape_1/shape/3", "shape": [], "dtype": "int32"}, {"name": "resnet_model/conv2d_17/SelfAttention_1/Reshape/shape/1", "shape": [], "dtype": "int32"}, {"name": "resnet_model/conv2d_17/SelfAttention_1/Reshape/shape/2", "shape": [], "dtype": "int32"}, {"name": "resnet_model/conv2d_17/SelfAttention_1/Reshape/shape/3", "shape": [], "dtype": "int32"}, {"name": "resnet_model/conv2d_17/SelfAttention_1/Reshape/shape/4", "shape": [], "dtype": "int32"}, {"name": "resnet_model/conv2d_17/SelfAttention_1/Reshape/shape/5", "shape": [], "dtype": "int32"}, {"name": "resnet_model/conv2d_17/SelfAttention_1/BroadcastTo/shape/1", "shape": [], "dtype": "int32"}, {"name": "resnet_model/conv2d_17/SelfAttention_1/BroadcastTo/shape/2", "shape": [], "dtype": "int32"}, {"name": "resnet_model/conv2d_17/SelfAttention_1/BroadcastTo/shape/3", "shape": [], "dtype": "int32"}, {"name": "resnet_model/conv2d_17/SelfAttention_1/BroadcastTo/shape/4", "shape": [], "dtype": "int32"}, {"name": "resnet_model/conv2d_17/SelfAttention_1/BroadcastTo/shape/5", "shape": [], "dtype": "int32"}, {"name": "resnet_model/conv2d_16/SelfAttention_1/Reshape/shape/1", "shape": [], "dtype": "int32"}, {"name": "resnet_model/conv2d_16/SelfAttention_1/Reshape/shape/2", "shape": [], "dtype": "int32"}, {"name": "resnet_model/conv2d_16/SelfAttention_1/Reshape/shape/3", "shape": [], "dtype": "int32"}, {"name": "resnet_model/conv2d_16/SelfAttention_1/Reshape/shape/4", "shape": [], "dtype": "int32"}, {"name": "resnet_model/conv2d_16/SelfAttention_1/Reshape/shape/5", "shape": [], "dtype": "int32"}, {"name": "resnet_model/conv2d_16/SelfAttention_1/BroadcastTo/shape/1", "shape": [], "dtype": "int32"}, {"name": "resnet_model/conv2d_16/SelfAttention_1/BroadcastTo/shape/2", "shape": [], "dtype": "int32"}, {"name": "resnet_model/conv2d_16/SelfAttention_1/BroadcastTo/shape/3", "shape": [], "dtype": "int32"}, {"name": "resnet_model/conv2d_16/SelfAttention_1/BroadcastTo/shape/4", "shape": [], "dtype": "int32"}, {"name": "resnet_model/conv2d_16/SelfAttention_1/BroadcastTo/shape/5", "shape": [], "dtype": "int32"}, {"name": "resnet_model/conv2d_15/SelfAttention_1/Reshape/shape/1", "shape": [], "dtype": "int32"}, {"name": "resnet_model/conv2d_15/SelfAttention_1/Reshape/shape/2", "shape": [], "dtype": "int32"}, {"name": "resnet_model/conv2d_15/SelfAttention_1/Reshape/shape/3", "shape": [], "dtype": "int32"}, {"name": "resnet_model/conv2d_15/SelfAttention_1/Reshape/shape/4", "shape": [], "dtype": "int32"}, {"name": "resnet_model/conv2d_15/SelfAttention_1/Reshape/shape/5", "shape": [], "dtype": "int32"}, {"name": "resnet_model/conv2d_15/SelfAttention_1/BroadcastTo/shape/1", "shape": [], "dtype": "int32"}, {"name": "resnet_model/conv2d_15/SelfAttention_1/BroadcastTo/shape/2", "shape": [], "dtype": "int32"}, {"name": "resnet_model/conv2d_15/SelfAttention_1/BroadcastTo/shape/3", "shape": [], "dtype": "int32"}, {"name": "resnet_model/conv2d_15/SelfAttention_1/BroadcastTo/shape/4", "shape": [], "dtype": "int32"}, {"name": "resnet_model/conv2d_15/SelfAttention_1/BroadcastTo/shape/5", "shape": [], "dtype": "int32"}, {"name": "resnet_model/batch_normalization_12/gamma", "shape": [292], "dtype": "float32"}, {"name": "resnet_model/batch_normalization_12/beta", "shape": [292], "dtype": "float32"}, {"name": "resnet_model/batch_normalization_12/moving_mean", "shape": [292], "dtype": "float32"}, {"name": "resnet_model/batch_normalization_12/moving_variance", "shape": [292], "dtype": "float32"}, {"name": "resnet_model/conv2d_15/SelfAttention_1/Variable", "shape": [1, 1, 292, 88], "dtype": "float32"}, {"name": "resnet_model/conv2d_15/SelfAttention_1/strided_slice/stack", "shape": [1], "dtype": "int32"}, {"name": "resnet_model/conv2d_15/SelfAttention_1/strided_slice/stack_1", "shape": [1], "dtype": "int32"}, {"name": "resnet_model/conv2d_15/SelfAttention_1/strided_slice/stack_2", "shape": [1], "dtype": "int32"}, {"name": "resnet_model/conv2d_15/SelfAttention_1/Reshape_1/shape/1", "shape": [], "dtype": "int32"}, {"name": "resnet_model/conv2d_15/SelfAttention_1/Reshape_1/shape/2", "shape": [], "dtype": "int32"}, {"name": "resnet_model/conv2d_15/SelfAttention_1/Reshape_1/shape/3", "shape": [], "dtype": "int32"}, {"name": "resnet_model/batch_normalization_13/gamma", "shape": [88], "dtype": "float32"}, {"name": "resnet_model/batch_normalization_13/beta", "shape": [88], "dtype": "float32"}, {"name": "resnet_model/batch_normalization_13/moving_mean", "shape": [88], "dtype": "float32"}, {"name": "resnet_model/batch_normalization_13/moving_variance", "shape": [88], "dtype": "float32"}, {"name": "resnet_model/conv2d_16/SelfAttention_1/EConv2D_1/Variable", "shape": [3, 3, 88, 2], "dtype": "float32"}, {"name": "resnet_model/conv2d_16/SelfAttention_1/EConv2D_1/Variable_1", "shape": [1, 1, 176, 92], "dtype": "float32"}, {"name": "resnet_model/conv2d_16/SelfAttention_1/strided_slice/stack", "shape": [1], "dtype": "int32"}, {"name": "resnet_model/conv2d_16/SelfAttention_1/strided_slice/stack_1", "shape": [1], "dtype": "int32"}, {"name": "resnet_model/conv2d_16/SelfAttention_1/strided_slice/stack_2", "shape": [1], "dtype": "int32"}, {"name": "resnet_model/conv2d_16/SelfAttention_1/Reshape_1/shape/1", "shape": [], "dtype": "int32"}, {"name": "resnet_model/conv2d_16/SelfAttention_1/Reshape_1/shape/2", "shape": [], "dtype": "int32"}, {"name": "resnet_model/conv2d_16/SelfAttention_1/Reshape_1/shape/3", "shape": [], "dtype": "int32"}, {"name": "resnet_model/batch_normalization_14/gamma", "shape": [92], "dtype": "float32"}, {"name": "resnet_model/batch_normalization_14/beta", "shape": [92], "dtype": "float32"}, {"name": "resnet_model/batch_normalization_14/moving_mean", "shape": [92], "dtype": "float32"}, {"name": "resnet_model/batch_normalization_14/moving_variance", "shape": [92], "dtype": "float32"}, {"name": "resnet_model/conv2d_17/SelfAttention_1/Variable", "shape": [1, 1, 92, 292], "dtype": "float32"}, {"name": "resnet_model/conv2d_17/SelfAttention_1/strided_slice/stack", "shape": [1], "dtype": "int32"}, {"name": "resnet_model/conv2d_17/SelfAttention_1/strided_slice/stack_1", "shape": [1], "dtype": "int32"}, {"name": "resnet_model/conv2d_17/SelfAttention_1/strided_slice/stack_2", "shape": [1], "dtype": "int32"}, {"name": "resnet_model/conv2d_17/SelfAttention_1/Reshape_1/shape/1", "shape": [], "dtype": "int32"}, {"name": "resnet_model/conv2d_17/SelfAttention_1/Reshape_1/shape/2", "shape": [], "dtype": "int32"}, {"name": "resnet_model/conv2d_17/SelfAttention_1/Reshape_1/shape/3", "shape": [], "dtype": "int32"}, {"name": "resnet_model/conv2d_14/SelfAttention_1/Reshape/shape/1", "shape": [], "dtype": "int32"}, {"name": "resnet_model/conv2d_14/SelfAttention_1/Reshape/shape/2", "shape": [], "dtype": "int32"}, {"name": "resnet_model/conv2d_14/SelfAttention_1/Reshape/shape/3", "shape": [], "dtype": "int32"}, {"name": "resnet_model/conv2d_14/SelfAttention_1/Reshape/shape/4", "shape": [], "dtype": "int32"}, {"name": "resnet_model/conv2d_14/SelfAttention_1/Reshape/shape/5", "shape": [], "dtype": "int32"}, {"name": "resnet_model/conv2d_14/SelfAttention_1/BroadcastTo/shape/1", "shape": [], "dtype": "int32"}, {"name": "resnet_model/conv2d_14/SelfAttention_1/BroadcastTo/shape/2", "shape": [], "dtype": "int32"}, {"name": "resnet_model/conv2d_14/SelfAttention_1/BroadcastTo/shape/3", "shape": [], "dtype": "int32"}, {"name": "resnet_model/conv2d_14/SelfAttention_1/BroadcastTo/shape/4", "shape": [], "dtype": "int32"}, {"name": "resnet_model/conv2d_14/SelfAttention_1/BroadcastTo/shape/5", "shape": [], "dtype": "int32"}, {"name": "resnet_model/conv2d_12/SelfAttention_1/Reshape/shape/1", "shape": [], "dtype": "int32"}, {"name": "resnet_model/conv2d_12/SelfAttention_1/Reshape/shape/2", "shape": [], "dtype": "int32"}, {"name": "resnet_model/conv2d_12/SelfAttention_1/Reshape/shape/3", "shape": [], "dtype": "int32"}, {"name": "resnet_model/conv2d_12/SelfAttention_1/Reshape/shape/4", "shape": [], "dtype": "int32"}, {"name": "resnet_model/conv2d_12/SelfAttention_1/Reshape/shape/5", "shape": [], "dtype": "int32"}, {"name": "resnet_model/conv2d_12/SelfAttention_1/BroadcastTo/shape/1", "shape": [], "dtype": "int32"}, {"name": "resnet_model/conv2d_12/SelfAttention_1/BroadcastTo/shape/2", "shape": [], "dtype": "int32"}, {"name": "resnet_model/conv2d_12/SelfAttention_1/BroadcastTo/shape/3", "shape": [], "dtype": "int32"}, {"name": "resnet_model/conv2d_12/SelfAttention_1/BroadcastTo/shape/4", "shape": [], "dtype": "int32"}, {"name": "resnet_model/conv2d_12/SelfAttention_1/BroadcastTo/shape/5", "shape": [], "dtype": "int32"}, {"name": "resnet_model/conv2d_12/SelfAttention_1/Variable", "shape": [1, 1, 144, 88], "dtype": "float32"}, {"name": "resnet_model/conv2d_12/SelfAttention_1/strided_slice/stack", "shape": [1], "dtype": "int32"}, {"name": "resnet_model/conv2d_12/SelfAttention_1/strided_slice/stack_1", "shape": [1], "dtype": "int32"}, {"name": "resnet_model/conv2d_12/SelfAttention_1/strided_slice/stack_2", "shape": [1], "dtype": "int32"}, {"name": "resnet_model/conv2d_12/SelfAttention_1/Reshape_1/shape/1", "shape": [], "dtype": "int32"}, {"name": "resnet_model/conv2d_12/SelfAttention_1/Reshape_1/shape/2", "shape": [], "dtype": "int32"}, {"name": "resnet_model/conv2d_12/SelfAttention_1/Reshape_1/shape/3", "shape": [], "dtype": "int32"}, {"name": "resnet_model/batch_normalization_10/gamma", "shape": [88], "dtype": "float32"}, {"name": "resnet_model/batch_normalization_10/beta", "shape": [88], "dtype": "float32"}, {"name": "resnet_model/batch_normalization_10/moving_mean", "shape": [88], "dtype": "float32"}, {"name": "resnet_model/batch_normalization_10/moving_variance", "shape": [88], "dtype": "float32"}, {"name": "resnet_model/Pad_2/paddings", "shape": [4, 2], "dtype": "int32"}, {"name": "resnet_model/conv2d_13/EConv2D_1/Variable", "shape": [3, 3, 88, 2], "dtype": "float32"}, {"name": "resnet_model/conv2d_14/SelfAttention_1/Variable", "shape": [1, 1, 88, 292], "dtype": "float32"}, {"name": "resnet_model/conv2d_14/SelfAttention_1/strided_slice/stack", "shape": [1], "dtype": "int32"}, {"name": "resnet_model/conv2d_14/SelfAttention_1/strided_slice/stack_1", "shape": [1], "dtype": "int32"}, {"name": "resnet_model/conv2d_14/SelfAttention_1/strided_slice/stack_2", "shape": [1], "dtype": "int32"}, {"name": "resnet_model/conv2d_14/SelfAttention_1/Reshape_1/shape/1", "shape": [], "dtype": "int32"}, {"name": "resnet_model/conv2d_14/SelfAttention_1/Reshape_1/shape/2", "shape": [], "dtype": "int32"}, {"name": "resnet_model/conv2d_14/SelfAttention_1/Reshape_1/shape/3", "shape": [], "dtype": "int32"}, {"name": "resnet_model/conv2d_11/SelfAttention_1/Reshape/shape/1", "shape": [], "dtype": "int32"}, {"name": "resnet_model/conv2d_11/SelfAttention_1/Reshape/shape/2", "shape": [], "dtype": "int32"}, {"name": "resnet_model/conv2d_11/SelfAttention_1/Reshape/shape/3", "shape": [], "dtype": "int32"}, {"name": "resnet_model/conv2d_11/SelfAttention_1/Reshape/shape/4", "shape": [], "dtype": "int32"}, {"name": "resnet_model/conv2d_11/SelfAttention_1/Reshape/shape/5", "shape": [], "dtype": "int32"}, {"name": "resnet_model/conv2d_11/SelfAttention_1/BroadcastTo/shape/1", "shape": [], "dtype": "int32"}, {"name": "resnet_model/conv2d_11/SelfAttention_1/BroadcastTo/shape/2", "shape": [], "dtype": "int32"}, {"name": "resnet_model/conv2d_11/SelfAttention_1/BroadcastTo/shape/3", "shape": [], "dtype": "int32"}, {"name": "resnet_model/conv2d_11/SelfAttention_1/BroadcastTo/shape/4", "shape": [], "dtype": "int32"}, {"name": "resnet_model/conv2d_11/SelfAttention_1/BroadcastTo/shape/5", "shape": [], "dtype": "int32"}, {"name": "resnet_model/conv2d_10/SelfAttention_1/Reshape/shape/1", "shape": [], "dtype": "int32"}, {"name": "resnet_model/conv2d_10/SelfAttention_1/Reshape/shape/2", "shape": [], "dtype": "int32"}, {"name": "resnet_model/conv2d_10/SelfAttention_1/Reshape/shape/3", "shape": [], "dtype": "int32"}, {"name": "resnet_model/conv2d_10/SelfAttention_1/Reshape/shape/4", "shape": [], "dtype": "int32"}, {"name": "resnet_model/conv2d_10/SelfAttention_1/Reshape/shape/5", "shape": [], "dtype": "int32"}, {"name": "resnet_model/conv2d_10/SelfAttention_1/BroadcastTo/shape/1", "shape": [], "dtype": "int32"}, {"name": "resnet_model/conv2d_10/SelfAttention_1/BroadcastTo/shape/2", "shape": [], "dtype": "int32"}, {"name": "resnet_model/conv2d_10/SelfAttention_1/BroadcastTo/shape/3", "shape": [], "dtype": "int32"}, {"name": "resnet_model/conv2d_10/SelfAttention_1/BroadcastTo/shape/4", "shape": [], "dtype": "int32"}, {"name": "resnet_model/conv2d_10/SelfAttention_1/BroadcastTo/shape/5", "shape": [], "dtype": "int32"}, {"name": "resnet_model/conv2d_9/SelfAttention_1/Reshape/shape/1", "shape": [], "dtype": "int32"}, {"name": "resnet_model/conv2d_9/SelfAttention_1/Reshape/shape/2", "shape": [], "dtype": "int32"}, {"name": "resnet_model/conv2d_9/SelfAttention_1/Reshape/shape/3", "shape": [], "dtype": "int32"}, {"name": "resnet_model/conv2d_9/SelfAttention_1/Reshape/shape/4", "shape": [], "dtype": "int32"}, {"name": "resnet_model/conv2d_9/SelfAttention_1/Reshape/shape/5", "shape": [], "dtype": "int32"}, {"name": "resnet_model/conv2d_9/SelfAttention_1/BroadcastTo/shape/1", "shape": [], "dtype": "int32"}, {"name": "resnet_model/conv2d_9/SelfAttention_1/BroadcastTo/shape/2", "shape": [], "dtype": "int32"}, {"name": "resnet_model/conv2d_9/SelfAttention_1/BroadcastTo/shape/3", "shape": [], "dtype": "int32"}, {"name": "resnet_model/conv2d_9/SelfAttention_1/BroadcastTo/shape/4", "shape": [], "dtype": "int32"}, {"name": "resnet_model/conv2d_9/SelfAttention_1/BroadcastTo/shape/5", "shape": [], "dtype": "int32"}, {"name": "resnet_model/conv2d_8/SelfAttention_1/Reshape/shape/1", "shape": [], "dtype": "int32"}, {"name": "resnet_model/conv2d_8/SelfAttention_1/Reshape/shape/2", "shape": [], "dtype": "int32"}, {"name": "resnet_model/conv2d_8/SelfAttention_1/Reshape/shape/3", "shape": [], "dtype": "int32"}, {"name": "resnet_model/conv2d_8/SelfAttention_1/Reshape/shape/4", "shape": [], "dtype": "int32"}, {"name": "resnet_model/conv2d_8/SelfAttention_1/Reshape/shape/5", "shape": [], "dtype": "int32"}, {"name": "resnet_model/conv2d_8/SelfAttention_1/BroadcastTo/shape/1", "shape": [], "dtype": "int32"}, {"name": "resnet_model/conv2d_8/SelfAttention_1/BroadcastTo/shape/2", "shape": [], "dtype": "int32"}, {"name": "resnet_model/conv2d_8/SelfAttention_1/BroadcastTo/shape/3", "shape": [], "dtype": "int32"}, {"name": "resnet_model/conv2d_8/SelfAttention_1/BroadcastTo/shape/4", "shape": [], "dtype": "int32"}, {"name": "resnet_model/conv2d_8/SelfAttention_1/BroadcastTo/shape/5", "shape": [], "dtype": "int32"}, {"name": "resnet_model/batch_normalization_6/gamma", "shape": [144], "dtype": "float32"}, {"name": "resnet_model/batch_normalization_6/beta", "shape": [144], "dtype": "float32"}, {"name": "resnet_model/batch_normalization_6/moving_mean", "shape": [144], "dtype": "float32"}, {"name": "resnet_model/batch_normalization_6/moving_variance", "shape": [144], "dtype": "float32"}, {"name": "resnet_model/conv2d_8/SelfAttention_1/Variable", "shape": [1, 1, 144, 48], "dtype": "float32"}, {"name": "resnet_model/conv2d_8/SelfAttention_1/strided_slice/stack", "shape": [1], "dtype": "int32"}, {"name": "resnet_model/conv2d_8/SelfAttention_1/strided_slice/stack_1", "shape": [1], "dtype": "int32"}, {"name": "resnet_model/conv2d_8/SelfAttention_1/strided_slice/stack_2", "shape": [1], "dtype": "int32"}, {"name": "resnet_model/conv2d_8/SelfAttention_1/Reshape_1/shape/1", "shape": [], "dtype": "int32"}, {"name": "resnet_model/conv2d_8/SelfAttention_1/Reshape_1/shape/2", "shape": [], "dtype": "int32"}, {"name": "resnet_model/conv2d_8/SelfAttention_1/Reshape_1/shape/3", "shape": [], "dtype": "int32"}, {"name": "resnet_model/batch_normalization_7/gamma", "shape": [48], "dtype": "float32"}, {"name": "resnet_model/batch_normalization_7/beta", "shape": [48], "dtype": "float32"}, {"name": "resnet_model/batch_normalization_7/moving_mean", "shape": [48], "dtype": "float32"}, {"name": "resnet_model/batch_normalization_7/moving_variance", "shape": [48], "dtype": "float32"}, {"name": "resnet_model/conv2d_9/SelfAttention_1/EConv2D_1/Variable", "shape": [3, 3, 48, 2], "dtype": "float32"}, {"name": "resnet_model/conv2d_9/SelfAttention_1/EConv2D_1/Variable_1", "shape": [1, 1, 96, 48], "dtype": "float32"}, {"name": "resnet_model/conv2d_9/SelfAttention_1/strided_slice/stack", "shape": [1], "dtype": "int32"}, {"name": "resnet_model/conv2d_9/SelfAttention_1/strided_slice/stack_1", "shape": [1], "dtype": "int32"}, {"name": "resnet_model/conv2d_9/SelfAttention_1/strided_slice/stack_2", "shape": [1], "dtype": "int32"}, {"name": "resnet_model/conv2d_9/SelfAttention_1/Reshape_1/shape/1", "shape": [], "dtype": "int32"}, {"name": "resnet_model/conv2d_9/SelfAttention_1/Reshape_1/shape/2", "shape": [], "dtype": "int32"}, {"name": "resnet_model/conv2d_9/SelfAttention_1/Reshape_1/shape/3", "shape": [], "dtype": "int32"}, {"name": "resnet_model/batch_normalization_8/gamma", "shape": [48], "dtype": "float32"}, {"name": "resnet_model/batch_normalization_8/beta", "shape": [48], "dtype": "float32"}, {"name": "resnet_model/batch_normalization_8/moving_mean", "shape": [48], "dtype": "float32"}, {"name": "resnet_model/batch_normalization_8/moving_variance", "shape": [48], "dtype": "float32"}, {"name": "resnet_model/conv2d_10/SelfAttention_1/Variable", "shape": [1, 1, 48, 144], "dtype": "float32"}, {"name": "resnet_model/conv2d_10/SelfAttention_1/strided_slice/stack", "shape": [1], "dtype": "int32"}, {"name": "resnet_model/conv2d_10/SelfAttention_1/strided_slice/stack_1", "shape": [1], "dtype": "int32"}, {"name": "resnet_model/conv2d_10/SelfAttention_1/strided_slice/stack_2", "shape": [1], "dtype": "int32"}, {"name": "resnet_model/conv2d_10/SelfAttention_1/Reshape_1/shape/1", "shape": [], "dtype": "int32"}, {"name": "resnet_model/conv2d_10/SelfAttention_1/Reshape_1/shape/2", "shape": [], "dtype": "int32"}, {"name": "resnet_model/conv2d_10/SelfAttention_1/Reshape_1/shape/3", "shape": [], "dtype": "int32"}, {"name": "resnet_model/conv2d_7/SelfAttention_1/Reshape/shape/1", "shape": [], "dtype": "int32"}, {"name": "resnet_model/conv2d_7/SelfAttention_1/Reshape/shape/2", "shape": [], "dtype": "int32"}, {"name": "resnet_model/conv2d_7/SelfAttention_1/Reshape/shape/3", "shape": [], "dtype": "int32"}, {"name": "resnet_model/conv2d_7/SelfAttention_1/Reshape/shape/4", "shape": [], "dtype": "int32"}, {"name": "resnet_model/conv2d_7/SelfAttention_1/Reshape/shape/5", "shape": [], "dtype": "int32"}, {"name": "resnet_model/conv2d_7/SelfAttention_1/BroadcastTo/shape/1", "shape": [], "dtype": "int32"}, {"name": "resnet_model/conv2d_7/SelfAttention_1/BroadcastTo/shape/2", "shape": [], "dtype": "int32"}, {"name": "resnet_model/conv2d_7/SelfAttention_1/BroadcastTo/shape/3", "shape": [], "dtype": "int32"}, {"name": "resnet_model/conv2d_7/SelfAttention_1/BroadcastTo/shape/4", "shape": [], "dtype": "int32"}, {"name": "resnet_model/conv2d_7/SelfAttention_1/BroadcastTo/shape/5", "shape": [], "dtype": "int32"}, {"name": "resnet_model/conv2d_6/SelfAttention_1/Reshape/shape/1", "shape": [], "dtype": "int32"}, {"name": "resnet_model/conv2d_6/SelfAttention_1/Reshape/shape/2", "shape": [], "dtype": "int32"}, {"name": "resnet_model/conv2d_6/SelfAttention_1/Reshape/shape/3", "shape": [], "dtype": "int32"}, {"name": "resnet_model/conv2d_6/SelfAttention_1/Reshape/shape/4", "shape": [], "dtype": "int32"}, {"name": "resnet_model/conv2d_6/SelfAttention_1/Reshape/shape/5", "shape": [], "dtype": "int32"}, {"name": "resnet_model/conv2d_6/SelfAttention_1/BroadcastTo/shape/1", "shape": [], "dtype": "int32"}, {"name": "resnet_model/conv2d_6/SelfAttention_1/BroadcastTo/shape/2", "shape": [], "dtype": "int32"}, {"name": "resnet_model/conv2d_6/SelfAttention_1/BroadcastTo/shape/3", "shape": [], "dtype": "int32"}, {"name": "resnet_model/conv2d_6/SelfAttention_1/BroadcastTo/shape/4", "shape": [], "dtype": "int32"}, {"name": "resnet_model/conv2d_6/SelfAttention_1/BroadcastTo/shape/5", "shape": [], "dtype": "int32"}, {"name": "resnet_model/conv2d_5/SelfAttention_1/Reshape/shape/1", "shape": [], "dtype": "int32"}, {"name": "resnet_model/conv2d_5/SelfAttention_1/Reshape/shape/2", "shape": [], "dtype": "int32"}, {"name": "resnet_model/conv2d_5/SelfAttention_1/Reshape/shape/3", "shape": [], "dtype": "int32"}, {"name": "resnet_model/conv2d_5/SelfAttention_1/Reshape/shape/4", "shape": [], "dtype": "int32"}, {"name": "resnet_model/conv2d_5/SelfAttention_1/Reshape/shape/5", "shape": [], "dtype": "int32"}, {"name": "resnet_model/conv2d_5/SelfAttention_1/BroadcastTo/shape/1", "shape": [], "dtype": "int32"}, {"name": "resnet_model/conv2d_5/SelfAttention_1/BroadcastTo/shape/2", "shape": [], "dtype": "int32"}, {"name": "resnet_model/conv2d_5/SelfAttention_1/BroadcastTo/shape/3", "shape": [], "dtype": "int32"}, {"name": "resnet_model/conv2d_5/SelfAttention_1/BroadcastTo/shape/4", "shape": [], "dtype": "int32"}, {"name": "resnet_model/conv2d_5/SelfAttention_1/BroadcastTo/shape/5", "shape": [], "dtype": "int32"}, {"name": "resnet_model/batch_normalization_3/gamma", "shape": [144], "dtype": "float32"}, {"name": "resnet_model/batch_normalization_3/beta", "shape": [144], "dtype": "float32"}, {"name": "resnet_model/batch_normalization_3/moving_mean", "shape": [144], "dtype": "float32"}, {"name": "resnet_model/batch_normalization_3/moving_variance", "shape": [144], "dtype": "float32"}, {"name": "resnet_model/conv2d_5/SelfAttention_1/Variable", "shape": [1, 1, 144, 48], "dtype": "float32"}, {"name": "resnet_model/conv2d_5/SelfAttention_1/strided_slice/stack", "shape": [1], "dtype": "int32"}, {"name": "resnet_model/conv2d_5/SelfAttention_1/strided_slice/stack_1", "shape": [1], "dtype": "int32"}, {"name": "resnet_model/conv2d_5/SelfAttention_1/strided_slice/stack_2", "shape": [1], "dtype": "int32"}, {"name": "resnet_model/conv2d_5/SelfAttention_1/Reshape_1/shape/1", "shape": [], "dtype": "int32"}, {"name": "resnet_model/conv2d_5/SelfAttention_1/Reshape_1/shape/2", "shape": [], "dtype": "int32"}, {"name": "resnet_model/conv2d_5/SelfAttention_1/Reshape_1/shape/3", "shape": [], "dtype": "int32"}, {"name": "resnet_model/batch_normalization_4/gamma", "shape": [48], "dtype": "float32"}, {"name": "resnet_model/batch_normalization_4/beta", "shape": [48], "dtype": "float32"}, {"name": "resnet_model/batch_normalization_4/moving_mean", "shape": [48], "dtype": "float32"}, {"name": "resnet_model/batch_normalization_4/moving_variance", "shape": [48], "dtype": "float32"}, {"name": "resnet_model/conv2d_6/SelfAttention_1/EConv2D_1/Variable", "shape": [3, 3, 48, 2], "dtype": "float32"}, {"name": "resnet_model/conv2d_6/SelfAttention_1/EConv2D_1/Variable_1", "shape": [1, 1, 96, 48], "dtype": "float32"}, {"name": "resnet_model/conv2d_6/SelfAttention_1/strided_slice/stack", "shape": [1], "dtype": "int32"}, {"name": "resnet_model/conv2d_6/SelfAttention_1/strided_slice/stack_1", "shape": [1], "dtype": "int32"}, {"name": "resnet_model/conv2d_6/SelfAttention_1/strided_slice/stack_2", "shape": [1], "dtype": "int32"}, {"name": "resnet_model/conv2d_6/SelfAttention_1/Reshape_1/shape/1", "shape": [], "dtype": "int32"}, {"name": "resnet_model/conv2d_6/SelfAttention_1/Reshape_1/shape/2", "shape": [], "dtype": "int32"}, {"name": "resnet_model/conv2d_6/SelfAttention_1/Reshape_1/shape/3", "shape": [], "dtype": "int32"}, {"name": "resnet_model/batch_normalization_5/gamma", "shape": [48], "dtype": "float32"}, {"name": "resnet_model/batch_normalization_5/beta", "shape": [48], "dtype": "float32"}, {"name": "resnet_model/batch_normalization_5/moving_mean", "shape": [48], "dtype": "float32"}, {"name": "resnet_model/batch_normalization_5/moving_variance", "shape": [48], "dtype": "float32"}, {"name": "resnet_model/conv2d_7/SelfAttention_1/Variable", "shape": [1, 1, 48, 144], "dtype": "float32"}, {"name": "resnet_model/conv2d_7/SelfAttention_1/strided_slice/stack", "shape": [1], "dtype": "int32"}, {"name": "resnet_model/conv2d_7/SelfAttention_1/strided_slice/stack_1", "shape": [1], "dtype": "int32"}, {"name": "resnet_model/conv2d_7/SelfAttention_1/strided_slice/stack_2", "shape": [1], "dtype": "int32"}, {"name": "resnet_model/conv2d_7/SelfAttention_1/Reshape_1/shape/1", "shape": [], "dtype": "int32"}, {"name": "resnet_model/conv2d_7/SelfAttention_1/Reshape_1/shape/2", "shape": [], "dtype": "int32"}, {"name": "resnet_model/conv2d_7/SelfAttention_1/Reshape_1/shape/3", "shape": [], "dtype": "int32"}, {"name": "resnet_model/conv2d_4/SelfAttention_1/Reshape/shape/1", "shape": [], "dtype": "int32"}, {"name": "resnet_model/conv2d_4/SelfAttention_1/Reshape/shape/2", "shape": [], "dtype": "int32"}, {"name": "resnet_model/conv2d_4/SelfAttention_1/Reshape/shape/3", "shape": [], "dtype": "int32"}, {"name": "resnet_model/conv2d_4/SelfAttention_1/Reshape/shape/4", "shape": [], "dtype": "int32"}, {"name": "resnet_model/conv2d_4/SelfAttention_1/Reshape/shape/5", "shape": [], "dtype": "int32"}, {"name": "resnet_model/conv2d_4/SelfAttention_1/BroadcastTo/shape/1", "shape": [], "dtype": "int32"}, {"name": "resnet_model/conv2d_4/SelfAttention_1/BroadcastTo/shape/2", "shape": [], "dtype": "int32"}, {"name": "resnet_model/conv2d_4/SelfAttention_1/BroadcastTo/shape/3", "shape": [], "dtype": "int32"}, {"name": "resnet_model/conv2d_4/SelfAttention_1/BroadcastTo/shape/4", "shape": [], "dtype": "int32"}, {"name": "resnet_model/conv2d_4/SelfAttention_1/BroadcastTo/shape/5", "shape": [], "dtype": "int32"}, {"name": "resnet_model/conv2d_3/SelfAttention_1/Reshape/shape/1", "shape": [], "dtype": "int32"}, {"name": "resnet_model/conv2d_3/SelfAttention_1/Reshape/shape/2", "shape": [], "dtype": "int32"}, {"name": "resnet_model/conv2d_3/SelfAttention_1/Reshape/shape/3", "shape": [], "dtype": "int32"}, {"name": "resnet_model/conv2d_3/SelfAttention_1/Reshape/shape/4", "shape": [], "dtype": "int32"}, {"name": "resnet_model/conv2d_3/SelfAttention_1/Reshape/shape/5", "shape": [], "dtype": "int32"}, {"name": "resnet_model/conv2d_3/SelfAttention_1/BroadcastTo/shape/1", "shape": [], "dtype": "int32"}, {"name": "resnet_model/conv2d_3/SelfAttention_1/BroadcastTo/shape/2", "shape": [], "dtype": "int32"}, {"name": "resnet_model/conv2d_3/SelfAttention_1/BroadcastTo/shape/3", "shape": [], "dtype": "int32"}, {"name": "resnet_model/conv2d_3/SelfAttention_1/BroadcastTo/shape/4", "shape": [], "dtype": "int32"}, {"name": "resnet_model/conv2d_3/SelfAttention_1/BroadcastTo/shape/5", "shape": [], "dtype": "int32"}, {"name": "resnet_model/conv2d_2/SelfAttention_1/Reshape/shape/1", "shape": [], "dtype": "int32"}, {"name": "resnet_model/conv2d_2/SelfAttention_1/Reshape/shape/2", "shape": [], "dtype": "int32"}, {"name": "resnet_model/conv2d_2/SelfAttention_1/Reshape/shape/3", "shape": [], "dtype": "int32"}, {"name": "resnet_model/conv2d_2/SelfAttention_1/Reshape/shape/4", "shape": [], "dtype": "int32"}, {"name": "resnet_model/conv2d_2/SelfAttention_1/Reshape/shape/5", "shape": [], "dtype": "int32"}, {"name": "resnet_model/conv2d_2/SelfAttention_1/BroadcastTo/shape/1", "shape": [], "dtype": "int32"}, {"name": "resnet_model/conv2d_2/SelfAttention_1/BroadcastTo/shape/2", "shape": [], "dtype": "int32"}, {"name": "resnet_model/conv2d_2/SelfAttention_1/BroadcastTo/shape/3", "shape": [], "dtype": "int32"}, {"name": "resnet_model/conv2d_2/SelfAttention_1/BroadcastTo/shape/4", "shape": [], "dtype": "int32"}, {"name": "resnet_model/conv2d_2/SelfAttention_1/BroadcastTo/shape/5", "shape": [], "dtype": "int32"}, {"name": "resnet_model/conv2d_2/SelfAttention_1/Variable", "shape": [1, 1, 48, 48], "dtype": "float32"}, {"name": "resnet_model/conv2d_2/SelfAttention_1/strided_slice/stack", "shape": [1], "dtype": "int32"}, {"name": "resnet_model/conv2d_2/SelfAttention_1/strided_slice/stack_1", "shape": [1], "dtype": "int32"}, {"name": "resnet_model/conv2d_2/SelfAttention_1/strided_slice/stack_2", "shape": [1], "dtype": "int32"}, {"name": "resnet_model/conv2d_2/SelfAttention_1/Reshape_1/shape/1", "shape": [], "dtype": "int32"}, {"name": "resnet_model/conv2d_2/SelfAttention_1/Reshape_1/shape/2", "shape": [], "dtype": "int32"}, {"name": "resnet_model/conv2d_2/SelfAttention_1/Reshape_1/shape/3", "shape": [], "dtype": "int32"}, {"name": "resnet_model/batch_normalization_1/gamma", "shape": [48], "dtype": "float32"}, {"name": "resnet_model/batch_normalization_1/beta", "shape": [48], "dtype": "float32"}, {"name": "resnet_model/batch_normalization_1/moving_mean", "shape": [48], "dtype": "float32"}, {"name": "resnet_model/batch_normalization_1/moving_variance", "shape": [48], "dtype": "float32"}, {"name": "resnet_model/conv2d_3/SelfAttention_1/EConv2D_1/Variable", "shape": [3, 3, 48, 2], "dtype": "float32"}, {"name": "resnet_model/conv2d_3/SelfAttention_1/EConv2D_1/Variable_1", "shape": [1, 1, 96, 48], "dtype": "float32"}, {"name": "resnet_model/conv2d_3/SelfAttention_1/strided_slice/stack", "shape": [1], "dtype": "int32"}, {"name": "resnet_model/conv2d_3/SelfAttention_1/strided_slice/stack_1", "shape": [1], "dtype": "int32"}, {"name": "resnet_model/conv2d_3/SelfAttention_1/strided_slice/stack_2", "shape": [1], "dtype": "int32"}, {"name": "resnet_model/conv2d_3/SelfAttention_1/Reshape_1/shape/1", "shape": [], "dtype": "int32"}, {"name": "resnet_model/conv2d_3/SelfAttention_1/Reshape_1/shape/2", "shape": [], "dtype": "int32"}, {"name": "resnet_model/conv2d_3/SelfAttention_1/Reshape_1/shape/3", "shape": [], "dtype": "int32"}, {"name": "resnet_model/batch_normalization_2/gamma", "shape": [48], "dtype": "float32"}, {"name": "resnet_model/batch_normalization_2/beta", "shape": [48], "dtype": "float32"}, {"name": "resnet_model/batch_normalization_2/moving_mean", "shape": [48], "dtype": "float32"}, {"name": "resnet_model/batch_normalization_2/moving_variance", "shape": [48], "dtype": "float32"}, {"name": "resnet_model/conv2d_4/SelfAttention_1/Variable", "shape": [1, 1, 48, 144], "dtype": "float32"}, {"name": "resnet_model/conv2d_4/SelfAttention_1/strided_slice/stack", "shape": [1], "dtype": "int32"}, {"name": "resnet_model/conv2d_4/SelfAttention_1/strided_slice/stack_1", "shape": [1], "dtype": "int32"}, {"name": "resnet_model/conv2d_4/SelfAttention_1/strided_slice/stack_2", "shape": [1], "dtype": "int32"}, {"name": "resnet_model/conv2d_4/SelfAttention_1/Reshape_1/shape/1", "shape": [], "dtype": "int32"}, {"name": "resnet_model/conv2d_4/SelfAttention_1/Reshape_1/shape/2", "shape": [], "dtype": "int32"}, {"name": "resnet_model/conv2d_4/SelfAttention_1/Reshape_1/shape/3", "shape": [], "dtype": "int32"}, {"name": "resnet_model/Pad/paddings", "shape": [4, 2], "dtype": "int32"}, {"name": "resnet_model/conv2d/kernel", "shape": [7, 7, 3, 48], "dtype": "float32"}, {"name": "resnet_model/batch_normalization/gamma", "shape": [48], "dtype": "float32"}, {"name": "resnet_model/batch_normalization/beta", "shape": [48], "dtype": "float32"}, {"name": "resnet_model/batch_normalization/moving_mean", "shape": [48], "dtype": "float32"}, {"name": "resnet_model/batch_normalization/moving_variance", "shape": [48], "dtype": "float32"}, {"name": "resnet_model/conv2d_1/kernel", "shape": [1, 1, 48, 144], "dtype": "float32"}, {"name": "resnet_model/batch_normalization_9/gamma", "shape": [144], "dtype": "float32"}, {"name": "resnet_model/batch_normalization_9/beta", "shape": [144], "dtype": "float32"}, {"name": "resnet_model/batch_normalization_9/moving_mean", "shape": [144], "dtype": "float32"}, {"name": "resnet_model/batch_normalization_9/moving_variance", "shape": [144], "dtype": "float32"}, {"name": "resnet_model/conv2d_11/SelfAttention_1/Variable", "shape": [1, 1, 144, 292], "dtype": "float32"}, {"name": "resnet_model/conv2d_11/SelfAttention_1/strided_slice/stack", "shape": [1], "dtype": "int32"}, {"name": "resnet_model/conv2d_11/SelfAttention_1/strided_slice/stack_1", "shape": [1], "dtype": "int32"}, {"name": "resnet_model/conv2d_11/SelfAttention_1/strided_slice/stack_2", "shape": [1], "dtype": "int32"}, {"name": "resnet_model/conv2d_11/SelfAttention_1/Reshape_1/shape/1", "shape": [], "dtype": "int32"}, {"name": "resnet_model/conv2d_11/SelfAttention_1/Reshape_1/shape/2", "shape": [], "dtype": "int32"}, {"name": "resnet_model/conv2d_11/SelfAttention_1/Reshape_1/shape/3", "shape": [], "dtype": "int32"}, {"name": "resnet_model/batch_normalization_21/gamma", "shape": [292], "dtype": "float32"}, {"name": "resnet_model/batch_normalization_21/beta", "shape": [292], "dtype": "float32"}, {"name": "resnet_model/batch_normalization_21/moving_mean", "shape": [292], "dtype": "float32"}, {"name": "resnet_model/batch_normalization_21/moving_variance", "shape": [292], "dtype": "float32"}, {"name": "resnet_model/conv2d_24/SelfAttention_1/Variable", "shape": [1, 1, 292, 528], "dtype": "float32"}, {"name": "resnet_model/conv2d_24/SelfAttention_1/strided_slice/stack", "shape": [1], "dtype": "int32"}, {"name": "resnet_model/conv2d_24/SelfAttention_1/strided_slice/stack_1", "shape": [1], "dtype": "int32"}, {"name": "resnet_model/conv2d_24/SelfAttention_1/strided_slice/stack_2", "shape": [1], "dtype": "int32"}, {"name": "resnet_model/conv2d_24/SelfAttention_1/Reshape_1/shape/1", "shape": [], "dtype": "int32"}, {"name": "resnet_model/conv2d_24/SelfAttention_1/Reshape_1/shape/2", "shape": [], "dtype": "int32"}, {"name": "resnet_model/conv2d_24/SelfAttention_1/Reshape_1/shape/3", "shape": [], "dtype": "int32"}, {"name": "resnet_model/batch_normalization_39/gamma", "shape": [528], "dtype": "float32"}, {"name": "resnet_model/batch_normalization_39/beta", "shape": [528], "dtype": "float32"}, {"name": "resnet_model/batch_normalization_39/moving_mean", "shape": [528], "dtype": "float32"}, {"name": "resnet_model/batch_normalization_39/moving_variance", "shape": [528], "dtype": "float32"}, {"name": "resnet_model/conv2d_43/SelfAttention_1/Variable", "shape": [1, 1, 528, 944], "dtype": "float32"}, {"name": "resnet_model/conv2d_43/SelfAttention_1/strided_slice/stack", "shape": [1], "dtype": "int32"}, {"name": "resnet_model/conv2d_43/SelfAttention_1/strided_slice/stack_1", "shape": [1], "dtype": "int32"}, {"name": "resnet_model/conv2d_43/SelfAttention_1/strided_slice/stack_2", "shape": [1], "dtype": "int32"}, {"name": "resnet_model/conv2d_43/SelfAttention_1/Reshape_1/shape/1", "shape": [], "dtype": "int32"}, {"name": "resnet_model/conv2d_43/SelfAttention_1/Reshape_1/shape/2", "shape": [], "dtype": "int32"}, {"name": "resnet_model/conv2d_43/SelfAttention_1/Reshape_1/shape/3", "shape": [], "dtype": "int32"}, {"name": "resnet_model/conv2d_43/SelfAttention_1/strided_slice_1/stack", "shape": [4], "dtype": "int32"}, {"name": "resnet_model/conv2d_43/SelfAttention_1/strided_slice_1/stack_1", "shape": [4], "dtype": "int32"}, {"name": "resnet_model/conv2d_43/SelfAttention_1/strided_slice_1/stack_2", "shape": [4], "dtype": "int32"}, {"name": "resnet_model/batch_normalization_48/gamma", "shape": [944], "dtype": "float32"}, {"name": "resnet_model/batch_normalization_48/beta", "shape": [944], "dtype": "float32"}, {"name": "resnet_model/batch_normalization_48/moving_mean", "shape": [944], "dtype": "float32"}, {"name": "resnet_model/batch_normalization_48/moving_variance", "shape": [944], "dtype": "float32"}, {"name": "resnet_model/Mean/reduction_indices", "shape": [2], "dtype": "int32"}, {"name": "resnet_model/dense/kernel", "shape": [944, 2], "dtype": "float32"}, {"name": "resnet_model/dense/bias", "shape": [2], "dtype": "float32"}, {"name": "ArgMax/dimension", "shape": [], "dtype": "int32"}, {"name": "resnet_model/conv2d_13/EConv2D_1/Conv2D_weights", "shape": [1, 1, 176, 88], "dtype": "float32"}, {"name": "resnet_model/conv2d_13/EConv2D_1/Conv2D_bn_offset", "shape": [88], "dtype": "float32"}, {"name": "resnet_model/conv2d_51/EConv2D_1/Conv2D_weights", "shape": [1, 1, 284, 288], "dtype": "float32"}, {"name": "resnet_model/conv2d_26/EConv2D_1/Conv2D_weights", "shape": [1, 1, 344, 164], "dtype": "float32"}, {"name": "resnet_model/conv2d_26/EConv2D_1/Conv2D_bn_offset", "shape": [164], "dtype": "float32"}, {"name": "resnet_model/conv2d_51/EConv2D_1/Conv2D_bn_offset", "shape": [288], "dtype": "float32"}, {"name": "resnet_model/conv2d_45/EConv2D_1/Conv2D_weights", "shape": [1, 1, 328, 288], "dtype": "float32"}, {"name": "resnet_model/conv2d_45/EConv2D_1/Conv2D_bn_offset", "shape": [288], "dtype": "float32"}, {"name": "resnet_model/conv2d_47/Conv2D_weights", "shape": [1, 1, 944, 280], "dtype": "float32"}, {"name": "resnet_model/conv2d_47/Conv2D_bn_offset", "shape": [280], "dtype": "float32"}, {"name": "resnet_model/conv2d_48/EConv2D_1/Conv2D_weights", "shape": [1, 1, 280, 284], "dtype": "float32"}, {"name": "resnet_model/conv2d_48/EConv2D_1/Conv2D_bn_offset", "shape": [284], "dtype": "float32"}, {"name": "resnet_model/conv2d_50/Conv2D_weights", "shape": [1, 1, 944, 284], "dtype": "float32"}, {"name": "resnet_model/conv2d_50/Conv2D_bn_offset", "shape": [284], "dtype": "float32"}]}]}